saved_model_schema_version: 1
meta_graphs {
  meta_info_def {
    stripped_op_list {
      op {
        name: "Add"
        input_arg {
          name: "x"
          type_attr: "T"
        }
        input_arg {
          name: "y"
          type_attr: "T"
        }
        output_arg {
          name: "z"
          type_attr: "T"
        }
        attr {
          name: "T"
          type: "type"
          allowed_values {
            list {
              type: DT_HALF
              type: DT_FLOAT
              type: DT_DOUBLE
              type: DT_UINT8
              type: DT_INT8
              type: DT_INT16
              type: DT_INT32
              type: DT_INT64
              type: DT_COMPLEX64
              type: DT_COMPLEX128
              type: DT_STRING
            }
          }
        }
      }
      op {
        name: "ApplyGradientDescent"
        input_arg {
          name: "var"
          type_attr: "T"
          is_ref: true
        }
        input_arg {
          name: "alpha"
          type_attr: "T"
        }
        input_arg {
          name: "delta"
          type_attr: "T"
        }
        output_arg {
          name: "out"
          type_attr: "T"
          is_ref: true
        }
        attr {
          name: "T"
          type: "type"
          allowed_values {
            list {
              type: DT_FLOAT
              type: DT_DOUBLE
              type: DT_INT64
              type: DT_INT32
              type: DT_UINT8
              type: DT_UINT16
              type: DT_INT16
              type: DT_INT8
              type: DT_COMPLEX64
              type: DT_COMPLEX128
              type: DT_QINT8
              type: DT_QUINT8
              type: DT_QINT32
              type: DT_HALF
            }
          }
        }
        attr {
          name: "use_locking"
          type: "bool"
          default_value {
            b: false
          }
        }
      }
      op {
        name: "Assign"
        input_arg {
          name: "ref"
          type_attr: "T"
          is_ref: true
        }
        input_arg {
          name: "value"
          type_attr: "T"
        }
        output_arg {
          name: "output_ref"
          type_attr: "T"
          is_ref: true
        }
        attr {
          name: "T"
          type: "type"
        }
        attr {
          name: "validate_shape"
          type: "bool"
          default_value {
            b: true
          }
        }
        attr {
          name: "use_locking"
          type: "bool"
          default_value {
            b: true
          }
        }
        allows_uninitialized_input: true
      }
      op {
        name: "BroadcastGradientArgs"
        input_arg {
          name: "s0"
          type_attr: "T"
        }
        input_arg {
          name: "s1"
          type_attr: "T"
        }
        output_arg {
          name: "r0"
          type_attr: "T"
        }
        output_arg {
          name: "r1"
          type_attr: "T"
        }
        attr {
          name: "T"
          type: "type"
          default_value {
            type: DT_INT32
          }
          allowed_values {
            list {
              type: DT_INT32
              type: DT_INT64
            }
          }
        }
      }
      op {
        name: "Const"
        output_arg {
          name: "output"
          type_attr: "dtype"
        }
        attr {
          name: "value"
          type: "tensor"
        }
        attr {
          name: "dtype"
          type: "type"
        }
      }
      op {
        name: "Conv2D"
        input_arg {
          name: "input"
          type_attr: "T"
        }
        input_arg {
          name: "filter"
          type_attr: "T"
        }
        output_arg {
          name: "output"
          type_attr: "T"
        }
        attr {
          name: "T"
          type: "type"
          allowed_values {
            list {
              type: DT_HALF
              type: DT_FLOAT
            }
          }
        }
        attr {
          name: "strides"
          type: "list(int)"
        }
        attr {
          name: "use_cudnn_on_gpu"
          type: "bool"
          default_value {
            b: true
          }
        }
        attr {
          name: "padding"
          type: "string"
          allowed_values {
            list {
              s: "SAME"
              s: "VALID"
            }
          }
        }
        attr {
          name: "data_format"
          type: "string"
          default_value {
            s: "NHWC"
          }
          allowed_values {
            list {
              s: "NHWC"
              s: "NCHW"
            }
          }
        }
      }
      op {
        name: "Conv2DBackpropFilter"
        input_arg {
          name: "input"
          type_attr: "T"
        }
        input_arg {
          name: "filter_sizes"
          type: DT_INT32
        }
        input_arg {
          name: "out_backprop"
          type_attr: "T"
        }
        output_arg {
          name: "output"
          type_attr: "T"
        }
        attr {
          name: "T"
          type: "type"
          allowed_values {
            list {
              type: DT_HALF
              type: DT_FLOAT
            }
          }
        }
        attr {
          name: "strides"
          type: "list(int)"
        }
        attr {
          name: "use_cudnn_on_gpu"
          type: "bool"
          default_value {
            b: true
          }
        }
        attr {
          name: "padding"
          type: "string"
          allowed_values {
            list {
              s: "SAME"
              s: "VALID"
            }
          }
        }
        attr {
          name: "data_format"
          type: "string"
          default_value {
            s: "NHWC"
          }
          allowed_values {
            list {
              s: "NHWC"
              s: "NCHW"
            }
          }
        }
      }
      op {
        name: "Conv2DBackpropInput"
        input_arg {
          name: "input_sizes"
          type: DT_INT32
        }
        input_arg {
          name: "filter"
          type_attr: "T"
        }
        input_arg {
          name: "out_backprop"
          type_attr: "T"
        }
        output_arg {
          name: "output"
          type_attr: "T"
        }
        attr {
          name: "T"
          type: "type"
          allowed_values {
            list {
              type: DT_HALF
              type: DT_FLOAT
            }
          }
        }
        attr {
          name: "strides"
          type: "list(int)"
        }
        attr {
          name: "use_cudnn_on_gpu"
          type: "bool"
          default_value {
            b: true
          }
        }
        attr {
          name: "padding"
          type: "string"
          allowed_values {
            list {
              s: "SAME"
              s: "VALID"
            }
          }
        }
        attr {
          name: "data_format"
          type: "string"
          default_value {
            s: "NHWC"
          }
          allowed_values {
            list {
              s: "NHWC"
              s: "NCHW"
            }
          }
        }
      }
      op {
        name: "Fill"
        input_arg {
          name: "dims"
          type: DT_INT32
        }
        input_arg {
          name: "value"
          type_attr: "T"
        }
        output_arg {
          name: "output"
          type_attr: "T"
        }
        attr {
          name: "T"
          type: "type"
        }
      }
      op {
        name: "Identity"
        input_arg {
          name: "input"
          type_attr: "T"
        }
        output_arg {
          name: "output"
          type_attr: "T"
        }
        attr {
          name: "T"
          type: "type"
        }
      }
      op {
        name: "MatMul"
        input_arg {
          name: "a"
          type_attr: "T"
        }
        input_arg {
          name: "b"
          type_attr: "T"
        }
        output_arg {
          name: "product"
          type_attr: "T"
        }
        attr {
          name: "transpose_a"
          type: "bool"
          default_value {
            b: false
          }
        }
        attr {
          name: "transpose_b"
          type: "bool"
          default_value {
            b: false
          }
        }
        attr {
          name: "T"
          type: "type"
          allowed_values {
            list {
              type: DT_HALF
              type: DT_FLOAT
              type: DT_DOUBLE
              type: DT_INT32
              type: DT_COMPLEX64
              type: DT_COMPLEX128
            }
          }
        }
      }
      op {
        name: "MaxPool"
        input_arg {
          name: "input"
          type_attr: "T"
        }
        output_arg {
          name: "output"
          type_attr: "T"
        }
        attr {
          name: "T"
          type: "type"
          default_value {
            type: DT_FLOAT
          }
          allowed_values {
            list {
              type: DT_FLOAT
              type: DT_DOUBLE
              type: DT_INT32
              type: DT_INT64
              type: DT_UINT8
              type: DT_INT16
              type: DT_INT8
              type: DT_UINT16
              type: DT_HALF
            }
          }
        }
        attr {
          name: "ksize"
          type: "list(int)"
          has_minimum: true
          minimum: 4
        }
        attr {
          name: "strides"
          type: "list(int)"
          has_minimum: true
          minimum: 4
        }
        attr {
          name: "padding"
          type: "string"
          allowed_values {
            list {
              s: "SAME"
              s: "VALID"
            }
          }
        }
        attr {
          name: "data_format"
          type: "string"
          default_value {
            s: "NHWC"
          }
          allowed_values {
            list {
              s: "NHWC"
              s: "NCHW"
            }
          }
        }
      }
      op {
        name: "MaxPoolGrad"
        input_arg {
          name: "orig_input"
          type_attr: "T"
        }
        input_arg {
          name: "orig_output"
          type_attr: "T"
        }
        input_arg {
          name: "grad"
          type_attr: "T"
        }
        output_arg {
          name: "output"
          type_attr: "T"
        }
        attr {
          name: "ksize"
          type: "list(int)"
          has_minimum: true
          minimum: 4
        }
        attr {
          name: "strides"
          type: "list(int)"
          has_minimum: true
          minimum: 4
        }
        attr {
          name: "padding"
          type: "string"
          allowed_values {
            list {
              s: "SAME"
              s: "VALID"
            }
          }
        }
        attr {
          name: "data_format"
          type: "string"
          default_value {
            s: "NHWC"
          }
          allowed_values {
            list {
              s: "NHWC"
              s: "NCHW"
            }
          }
        }
        attr {
          name: "T"
          type: "type"
          default_value {
            type: DT_FLOAT
          }
          allowed_values {
            list {
              type: DT_FLOAT
              type: DT_DOUBLE
              type: DT_INT32
              type: DT_INT64
              type: DT_UINT8
              type: DT_INT16
              type: DT_INT8
              type: DT_UINT16
              type: DT_HALF
            }
          }
        }
      }
      op {
        name: "MergeV2Checkpoints"
        input_arg {
          name: "checkpoint_prefixes"
          type: DT_STRING
        }
        input_arg {
          name: "destination_prefix"
          type: DT_STRING
        }
        attr {
          name: "delete_old_dirs"
          type: "bool"
          default_value {
            b: true
          }
        }
        is_stateful: true
      }
      op {
        name: "Mul"
        input_arg {
          name: "x"
          type_attr: "T"
        }
        input_arg {
          name: "y"
          type_attr: "T"
        }
        output_arg {
          name: "z"
          type_attr: "T"
        }
        attr {
          name: "T"
          type: "type"
          allowed_values {
            list {
              type: DT_HALF
              type: DT_FLOAT
              type: DT_DOUBLE
              type: DT_UINT8
              type: DT_INT8
              type: DT_UINT16
              type: DT_INT16
              type: DT_INT32
              type: DT_INT64
              type: DT_COMPLEX64
              type: DT_COMPLEX128
            }
          }
        }
        is_commutative: true
      }
      op {
        name: "Neg"
        input_arg {
          name: "x"
          type_attr: "T"
        }
        output_arg {
          name: "y"
          type_attr: "T"
        }
        attr {
          name: "T"
          type: "type"
          allowed_values {
            list {
              type: DT_HALF
              type: DT_FLOAT
              type: DT_DOUBLE
              type: DT_INT32
              type: DT_INT64
              type: DT_COMPLEX64
              type: DT_COMPLEX128
            }
          }
        }
      }
      op {
        name: "NoOp"
      }
      op {
        name: "Pack"
        input_arg {
          name: "values"
          type_attr: "T"
          number_attr: "N"
        }
        output_arg {
          name: "output"
          type_attr: "T"
        }
        attr {
          name: "N"
          type: "int"
          has_minimum: true
          minimum: 1
        }
        attr {
          name: "T"
          type: "type"
        }
        attr {
          name: "axis"
          type: "int"
          default_value {
            i: 0
          }
        }
      }
      op {
        name: "Placeholder"
        output_arg {
          name: "output"
          type_attr: "dtype"
        }
        attr {
          name: "dtype"
          type: "type"
        }
        attr {
          name: "shape"
          type: "shape"
          default_value {
            shape {
              unknown_rank: true
            }
          }
        }
      }
      op {
        name: "RandomStandardNormal"
        input_arg {
          name: "shape"
          type_attr: "T"
        }
        output_arg {
          name: "output"
          type_attr: "dtype"
        }
        attr {
          name: "seed"
          type: "int"
          default_value {
            i: 0
          }
        }
        attr {
          name: "seed2"
          type: "int"
          default_value {
            i: 0
          }
        }
        attr {
          name: "dtype"
          type: "type"
          allowed_values {
            list {
              type: DT_HALF
              type: DT_FLOAT
              type: DT_DOUBLE
            }
          }
        }
        attr {
          name: "T"
          type: "type"
          allowed_values {
            list {
              type: DT_INT32
              type: DT_INT64
            }
          }
        }
        is_stateful: true
      }
      op {
        name: "Relu"
        input_arg {
          name: "features"
          type_attr: "T"
        }
        output_arg {
          name: "activations"
          type_attr: "T"
        }
        attr {
          name: "T"
          type: "type"
          allowed_values {
            list {
              type: DT_FLOAT
              type: DT_DOUBLE
              type: DT_INT32
              type: DT_INT64
              type: DT_UINT8
              type: DT_INT16
              type: DT_INT8
              type: DT_UINT16
              type: DT_HALF
            }
          }
        }
      }
      op {
        name: "ReluGrad"
        input_arg {
          name: "gradients"
          type_attr: "T"
        }
        input_arg {
          name: "features"
          type_attr: "T"
        }
        output_arg {
          name: "backprops"
          type_attr: "T"
        }
        attr {
          name: "T"
          type: "type"
          allowed_values {
            list {
              type: DT_FLOAT
              type: DT_DOUBLE
              type: DT_INT32
              type: DT_INT64
              type: DT_UINT8
              type: DT_INT16
              type: DT_INT8
              type: DT_UINT16
              type: DT_HALF
            }
          }
        }
      }
      op {
        name: "Reshape"
        input_arg {
          name: "tensor"
          type_attr: "T"
        }
        input_arg {
          name: "shape"
          type_attr: "Tshape"
        }
        output_arg {
          name: "output"
          type_attr: "T"
        }
        attr {
          name: "T"
          type: "type"
        }
        attr {
          name: "Tshape"
          type: "type"
          default_value {
            type: DT_INT32
          }
          allowed_values {
            list {
              type: DT_INT32
              type: DT_INT64
            }
          }
        }
      }
      op {
        name: "RestoreV2"
        input_arg {
          name: "prefix"
          type: DT_STRING
        }
        input_arg {
          name: "tensor_names"
          type: DT_STRING
        }
        input_arg {
          name: "shape_and_slices"
          type: DT_STRING
        }
        output_arg {
          name: "tensors"
          type_list_attr: "dtypes"
        }
        attr {
          name: "dtypes"
          type: "list(type)"
          has_minimum: true
          minimum: 1
        }
        is_stateful: true
      }
      op {
        name: "SaveV2"
        input_arg {
          name: "prefix"
          type: DT_STRING
        }
        input_arg {
          name: "tensor_names"
          type: DT_STRING
        }
        input_arg {
          name: "shape_and_slices"
          type: DT_STRING
        }
        input_arg {
          name: "tensors"
          type_list_attr: "dtypes"
        }
        attr {
          name: "dtypes"
          type: "list(type)"
          has_minimum: true
          minimum: 1
        }
        is_stateful: true
      }
      op {
        name: "Shape"
        input_arg {
          name: "input"
          type_attr: "T"
        }
        output_arg {
          name: "output"
          type_attr: "out_type"
        }
        attr {
          name: "T"
          type: "type"
        }
        attr {
          name: "out_type"
          type: "type"
          default_value {
            type: DT_INT32
          }
          allowed_values {
            list {
              type: DT_INT32
              type: DT_INT64
            }
          }
        }
      }
      op {
        name: "ShardedFilename"
        input_arg {
          name: "basename"
          type: DT_STRING
        }
        input_arg {
          name: "shard"
          type: DT_INT32
        }
        input_arg {
          name: "num_shards"
          type: DT_INT32
        }
        output_arg {
          name: "filename"
          type: DT_STRING
        }
      }
      op {
        name: "Square"
        input_arg {
          name: "x"
          type_attr: "T"
        }
        output_arg {
          name: "y"
          type_attr: "T"
        }
        attr {
          name: "T"
          type: "type"
          allowed_values {
            list {
              type: DT_HALF
              type: DT_FLOAT
              type: DT_DOUBLE
              type: DT_INT32
              type: DT_INT64
              type: DT_COMPLEX64
              type: DT_COMPLEX128
            }
          }
        }
      }
      op {
        name: "StringJoin"
        input_arg {
          name: "inputs"
          type: DT_STRING
          number_attr: "N"
        }
        output_arg {
          name: "output"
          type: DT_STRING
        }
        attr {
          name: "N"
          type: "int"
          has_minimum: true
          minimum: 1
        }
        attr {
          name: "separator"
          type: "string"
          default_value {
            s: ""
          }
        }
      }
      op {
        name: "Sub"
        input_arg {
          name: "x"
          type_attr: "T"
        }
        input_arg {
          name: "y"
          type_attr: "T"
        }
        output_arg {
          name: "z"
          type_attr: "T"
        }
        attr {
          name: "T"
          type: "type"
          allowed_values {
            list {
              type: DT_HALF
              type: DT_FLOAT
              type: DT_DOUBLE
              type: DT_INT32
              type: DT_INT64
              type: DT_COMPLEX64
              type: DT_COMPLEX128
            }
          }
        }
      }
      op {
        name: "Sum"
        input_arg {
          name: "input"
          type_attr: "T"
        }
        input_arg {
          name: "reduction_indices"
          type_attr: "Tidx"
        }
        output_arg {
          name: "output"
          type_attr: "T"
        }
        attr {
          name: "keep_dims"
          type: "bool"
          default_value {
            b: false
          }
        }
        attr {
          name: "T"
          type: "type"
          allowed_values {
            list {
              type: DT_FLOAT
              type: DT_DOUBLE
              type: DT_INT64
              type: DT_INT32
              type: DT_UINT8
              type: DT_UINT16
              type: DT_INT16
              type: DT_INT8
              type: DT_COMPLEX64
              type: DT_COMPLEX128
              type: DT_QINT8
              type: DT_QUINT8
              type: DT_QINT32
              type: DT_HALF
            }
          }
        }
        attr {
          name: "Tidx"
          type: "type"
          default_value {
            type: DT_INT32
          }
          allowed_values {
            list {
              type: DT_INT32
              type: DT_INT64
            }
          }
        }
      }
      op {
        name: "Tile"
        input_arg {
          name: "input"
          type_attr: "T"
        }
        input_arg {
          name: "multiples"
          type_attr: "Tmultiples"
        }
        output_arg {
          name: "output"
          type_attr: "T"
        }
        attr {
          name: "T"
          type: "type"
        }
        attr {
          name: "Tmultiples"
          type: "type"
          default_value {
            type: DT_INT32
          }
          allowed_values {
            list {
              type: DT_INT32
              type: DT_INT64
            }
          }
        }
      }
      op {
        name: "VariableV2"
        output_arg {
          name: "ref"
          type_attr: "dtype"
          is_ref: true
        }
        attr {
          name: "shape"
          type: "shape"
        }
        attr {
          name: "dtype"
          type: "type"
        }
        attr {
          name: "container"
          type: "string"
          default_value {
            s: ""
          }
        }
        attr {
          name: "shared_name"
          type: "string"
          default_value {
            s: ""
          }
        }
        is_stateful: true
      }
    }
    tags: "train"
    tensorflow_version: "1.3.0"
    tensorflow_git_version: "v1.3.0-rc2-20-g0787eee"
  }
  graph_def {
    node {
      name: "input"
      op: "Placeholder"
      attr {
        key: "_output_shapes"
        value {
          list {
            shape {
              dim {
                size: -1
              }
              dim {
                size: 10336
              }
            }
          }
        }
      }
      attr {
        key: "dtype"
        value {
          type: DT_FLOAT
        }
      }
      attr {
        key: "shape"
        value {
          shape {
            dim {
              size: -1
            }
            dim {
              size: 10336
            }
          }
        }
      }
    }
    node {
      name: "Placeholder"
      op: "Placeholder"
      attr {
        key: "_output_shapes"
        value {
          list {
            shape {
              unknown_rank: true
            }
          }
        }
      }
      attr {
        key: "dtype"
        value {
          type: DT_FLOAT
        }
      }
      attr {
        key: "shape"
        value {
          shape {
            unknown_rank: true
          }
        }
      }
    }
    node {
      name: "random_normal/shape"
      op: "Const"
      attr {
        key: "_output_shapes"
        value {
          list {
            shape {
              dim {
                size: 4
              }
            }
          }
        }
      }
      attr {
        key: "dtype"
        value {
          type: DT_INT32
        }
      }
      attr {
        key: "value"
        value {
          tensor {
            dtype: DT_INT32
            tensor_shape {
              dim {
                size: 4
              }
            }
            tensor_content: "\005\000\000\000\005\000\000\000\001\000\000\000 \000\000\000"
          }
        }
      }
    }
    node {
      name: "random_normal/mean"
      op: "Const"
      attr {
        key: "_output_shapes"
        value {
          list {
            shape {
            }
          }
        }
      }
      attr {
        key: "dtype"
        value {
          type: DT_FLOAT
        }
      }
      attr {
        key: "value"
        value {
          tensor {
            dtype: DT_FLOAT
            tensor_shape {
            }
            float_val: 0.0
          }
        }
      }
    }
    node {
      name: "random_normal/stddev"
      op: "Const"
      attr {
        key: "_output_shapes"
        value {
          list {
            shape {
            }
          }
        }
      }
      attr {
        key: "dtype"
        value {
          type: DT_FLOAT
        }
      }
      attr {
        key: "value"
        value {
          tensor {
            dtype: DT_FLOAT
            tensor_shape {
            }
            float_val: 1.0
          }
        }
      }
    }
    node {
      name: "random_normal/RandomStandardNormal"
      op: "RandomStandardNormal"
      input: "random_normal/shape"
      attr {
        key: "T"
        value {
          type: DT_INT32
        }
      }
      attr {
        key: "_output_shapes"
        value {
          list {
            shape {
              dim {
                size: 5
              }
              dim {
                size: 5
              }
              dim {
                size: 1
              }
              dim {
                size: 32
              }
            }
          }
        }
      }
      attr {
        key: "dtype"
        value {
          type: DT_FLOAT
        }
      }
      attr {
        key: "seed"
        value {
          i: 0
        }
      }
      attr {
        key: "seed2"
        value {
          i: 0
        }
      }
    }
    node {
      name: "random_normal/mul"
      op: "Mul"
      input: "random_normal/RandomStandardNormal"
      input: "random_normal/stddev"
      attr {
        key: "T"
        value {
          type: DT_FLOAT
        }
      }
      attr {
        key: "_output_shapes"
        value {
          list {
            shape {
              dim {
                size: 5
              }
              dim {
                size: 5
              }
              dim {
                size: 1
              }
              dim {
                size: 32
              }
            }
          }
        }
      }
    }
    node {
      name: "random_normal"
      op: "Add"
      input: "random_normal/mul"
      input: "random_normal/mean"
      attr {
        key: "T"
        value {
          type: DT_FLOAT
        }
      }
      attr {
        key: "_output_shapes"
        value {
          list {
            shape {
              dim {
                size: 5
              }
              dim {
                size: 5
              }
              dim {
                size: 1
              }
              dim {
                size: 32
              }
            }
          }
        }
      }
    }
    node {
      name: "Variable"
      op: "VariableV2"
      attr {
        key: "_output_shapes"
        value {
          list {
            shape {
              dim {
                size: 5
              }
              dim {
                size: 5
              }
              dim {
                size: 1
              }
              dim {
                size: 32
              }
            }
          }
        }
      }
      attr {
        key: "container"
        value {
          s: ""
        }
      }
      attr {
        key: "dtype"
        value {
          type: DT_FLOAT
        }
      }
      attr {
        key: "shape"
        value {
          shape {
            dim {
              size: 5
            }
            dim {
              size: 5
            }
            dim {
              size: 1
            }
            dim {
              size: 32
            }
          }
        }
      }
      attr {
        key: "shared_name"
        value {
          s: ""
        }
      }
    }
    node {
      name: "Variable/Assign"
      op: "Assign"
      input: "Variable"
      input: "random_normal"
      attr {
        key: "T"
        value {
          type: DT_FLOAT
        }
      }
      attr {
        key: "_class"
        value {
          list {
            s: "loc:@Variable"
          }
        }
      }
      attr {
        key: "_output_shapes"
        value {
          list {
            shape {
              dim {
                size: 5
              }
              dim {
                size: 5
              }
              dim {
                size: 1
              }
              dim {
                size: 32
              }
            }
          }
        }
      }
      attr {
        key: "use_locking"
        value {
          b: true
        }
      }
      attr {
        key: "validate_shape"
        value {
          b: true
        }
      }
    }
    node {
      name: "Variable/read"
      op: "Identity"
      input: "Variable"
      attr {
        key: "T"
        value {
          type: DT_FLOAT
        }
      }
      attr {
        key: "_class"
        value {
          list {
            s: "loc:@Variable"
          }
        }
      }
      attr {
        key: "_output_shapes"
        value {
          list {
            shape {
              dim {
                size: 5
              }
              dim {
                size: 5
              }
              dim {
                size: 1
              }
              dim {
                size: 32
              }
            }
          }
        }
      }
    }
    node {
      name: "random_normal_1/shape"
      op: "Const"
      attr {
        key: "_output_shapes"
        value {
          list {
            shape {
              dim {
                size: 4
              }
            }
          }
        }
      }
      attr {
        key: "dtype"
        value {
          type: DT_INT32
        }
      }
      attr {
        key: "value"
        value {
          tensor {
            dtype: DT_INT32
            tensor_shape {
              dim {
                size: 4
              }
            }
            tensor_content: "\005\000\000\000\005\000\000\000 \000\000\000@\000\000\000"
          }
        }
      }
    }
    node {
      name: "random_normal_1/mean"
      op: "Const"
      attr {
        key: "_output_shapes"
        value {
          list {
            shape {
            }
          }
        }
      }
      attr {
        key: "dtype"
        value {
          type: DT_FLOAT
        }
      }
      attr {
        key: "value"
        value {
          tensor {
            dtype: DT_FLOAT
            tensor_shape {
            }
            float_val: 0.0
          }
        }
      }
    }
    node {
      name: "random_normal_1/stddev"
      op: "Const"
      attr {
        key: "_output_shapes"
        value {
          list {
            shape {
            }
          }
        }
      }
      attr {
        key: "dtype"
        value {
          type: DT_FLOAT
        }
      }
      attr {
        key: "value"
        value {
          tensor {
            dtype: DT_FLOAT
            tensor_shape {
            }
            float_val: 1.0
          }
        }
      }
    }
    node {
      name: "random_normal_1/RandomStandardNormal"
      op: "RandomStandardNormal"
      input: "random_normal_1/shape"
      attr {
        key: "T"
        value {
          type: DT_INT32
        }
      }
      attr {
        key: "_output_shapes"
        value {
          list {
            shape {
              dim {
                size: 5
              }
              dim {
                size: 5
              }
              dim {
                size: 32
              }
              dim {
                size: 64
              }
            }
          }
        }
      }
      attr {
        key: "dtype"
        value {
          type: DT_FLOAT
        }
      }
      attr {
        key: "seed"
        value {
          i: 0
        }
      }
      attr {
        key: "seed2"
        value {
          i: 0
        }
      }
    }
    node {
      name: "random_normal_1/mul"
      op: "Mul"
      input: "random_normal_1/RandomStandardNormal"
      input: "random_normal_1/stddev"
      attr {
        key: "T"
        value {
          type: DT_FLOAT
        }
      }
      attr {
        key: "_output_shapes"
        value {
          list {
            shape {
              dim {
                size: 5
              }
              dim {
                size: 5
              }
              dim {
                size: 32
              }
              dim {
                size: 64
              }
            }
          }
        }
      }
    }
    node {
      name: "random_normal_1"
      op: "Add"
      input: "random_normal_1/mul"
      input: "random_normal_1/mean"
      attr {
        key: "T"
        value {
          type: DT_FLOAT
        }
      }
      attr {
        key: "_output_shapes"
        value {
          list {
            shape {
              dim {
                size: 5
              }
              dim {
                size: 5
              }
              dim {
                size: 32
              }
              dim {
                size: 64
              }
            }
          }
        }
      }
    }
    node {
      name: "Variable_1"
      op: "VariableV2"
      attr {
        key: "_output_shapes"
        value {
          list {
            shape {
              dim {
                size: 5
              }
              dim {
                size: 5
              }
              dim {
                size: 32
              }
              dim {
                size: 64
              }
            }
          }
        }
      }
      attr {
        key: "container"
        value {
          s: ""
        }
      }
      attr {
        key: "dtype"
        value {
          type: DT_FLOAT
        }
      }
      attr {
        key: "shape"
        value {
          shape {
            dim {
              size: 5
            }
            dim {
              size: 5
            }
            dim {
              size: 32
            }
            dim {
              size: 64
            }
          }
        }
      }
      attr {
        key: "shared_name"
        value {
          s: ""
        }
      }
    }
    node {
      name: "Variable_1/Assign"
      op: "Assign"
      input: "Variable_1"
      input: "random_normal_1"
      attr {
        key: "T"
        value {
          type: DT_FLOAT
        }
      }
      attr {
        key: "_class"
        value {
          list {
            s: "loc:@Variable_1"
          }
        }
      }
      attr {
        key: "_output_shapes"
        value {
          list {
            shape {
              dim {
                size: 5
              }
              dim {
                size: 5
              }
              dim {
                size: 32
              }
              dim {
                size: 64
              }
            }
          }
        }
      }
      attr {
        key: "use_locking"
        value {
          b: true
        }
      }
      attr {
        key: "validate_shape"
        value {
          b: true
        }
      }
    }
    node {
      name: "Variable_1/read"
      op: "Identity"
      input: "Variable_1"
      attr {
        key: "T"
        value {
          type: DT_FLOAT
        }
      }
      attr {
        key: "_class"
        value {
          list {
            s: "loc:@Variable_1"
          }
        }
      }
      attr {
        key: "_output_shapes"
        value {
          list {
            shape {
              dim {
                size: 5
              }
              dim {
                size: 5
              }
              dim {
                size: 32
              }
              dim {
                size: 64
              }
            }
          }
        }
      }
    }
    node {
      name: "random_normal_2/shape"
      op: "Const"
      attr {
        key: "_output_shapes"
        value {
          list {
            shape {
              dim {
                size: 2
              }
            }
          }
        }
      }
      attr {
        key: "dtype"
        value {
          type: DT_INT32
        }
      }
      attr {
        key: "value"
        value {
          tensor {
            dtype: DT_INT32
            tensor_shape {
              dim {
                size: 2
              }
            }
            tensor_content: "\200\241\000\000\000\004\000\000"
          }
        }
      }
    }
    node {
      name: "random_normal_2/mean"
      op: "Const"
      attr {
        key: "_output_shapes"
        value {
          list {
            shape {
            }
          }
        }
      }
      attr {
        key: "dtype"
        value {
          type: DT_FLOAT
        }
      }
      attr {
        key: "value"
        value {
          tensor {
            dtype: DT_FLOAT
            tensor_shape {
            }
            float_val: 0.0
          }
        }
      }
    }
    node {
      name: "random_normal_2/stddev"
      op: "Const"
      attr {
        key: "_output_shapes"
        value {
          list {
            shape {
            }
          }
        }
      }
      attr {
        key: "dtype"
        value {
          type: DT_FLOAT
        }
      }
      attr {
        key: "value"
        value {
          tensor {
            dtype: DT_FLOAT
            tensor_shape {
            }
            float_val: 1.0
          }
        }
      }
    }
    node {
      name: "random_normal_2/RandomStandardNormal"
      op: "RandomStandardNormal"
      input: "random_normal_2/shape"
      attr {
        key: "T"
        value {
          type: DT_INT32
        }
      }
      attr {
        key: "_output_shapes"
        value {
          list {
            shape {
              dim {
                size: 41344
              }
              dim {
                size: 1024
              }
            }
          }
        }
      }
      attr {
        key: "dtype"
        value {
          type: DT_FLOAT
        }
      }
      attr {
        key: "seed"
        value {
          i: 0
        }
      }
      attr {
        key: "seed2"
        value {
          i: 0
        }
      }
    }
    node {
      name: "random_normal_2/mul"
      op: "Mul"
      input: "random_normal_2/RandomStandardNormal"
      input: "random_normal_2/stddev"
      attr {
        key: "T"
        value {
          type: DT_FLOAT
        }
      }
      attr {
        key: "_output_shapes"
        value {
          list {
            shape {
              dim {
                size: 41344
              }
              dim {
                size: 1024
              }
            }
          }
        }
      }
    }
    node {
      name: "random_normal_2"
      op: "Add"
      input: "random_normal_2/mul"
      input: "random_normal_2/mean"
      attr {
        key: "T"
        value {
          type: DT_FLOAT
        }
      }
      attr {
        key: "_output_shapes"
        value {
          list {
            shape {
              dim {
                size: 41344
              }
              dim {
                size: 1024
              }
            }
          }
        }
      }
    }
    node {
      name: "Variable_2"
      op: "VariableV2"
      attr {
        key: "_output_shapes"
        value {
          list {
            shape {
              dim {
                size: 41344
              }
              dim {
                size: 1024
              }
            }
          }
        }
      }
      attr {
        key: "container"
        value {
          s: ""
        }
      }
      attr {
        key: "dtype"
        value {
          type: DT_FLOAT
        }
      }
      attr {
        key: "shape"
        value {
          shape {
            dim {
              size: 41344
            }
            dim {
              size: 1024
            }
          }
        }
      }
      attr {
        key: "shared_name"
        value {
          s: ""
        }
      }
    }
    node {
      name: "Variable_2/Assign"
      op: "Assign"
      input: "Variable_2"
      input: "random_normal_2"
      attr {
        key: "T"
        value {
          type: DT_FLOAT
        }
      }
      attr {
        key: "_class"
        value {
          list {
            s: "loc:@Variable_2"
          }
        }
      }
      attr {
        key: "_output_shapes"
        value {
          list {
            shape {
              dim {
                size: 41344
              }
              dim {
                size: 1024
              }
            }
          }
        }
      }
      attr {
        key: "use_locking"
        value {
          b: true
        }
      }
      attr {
        key: "validate_shape"
        value {
          b: true
        }
      }
    }
    node {
      name: "Variable_2/read"
      op: "Identity"
      input: "Variable_2"
      attr {
        key: "T"
        value {
          type: DT_FLOAT
        }
      }
      attr {
        key: "_class"
        value {
          list {
            s: "loc:@Variable_2"
          }
        }
      }
      attr {
        key: "_output_shapes"
        value {
          list {
            shape {
              dim {
                size: 41344
              }
              dim {
                size: 1024
              }
            }
          }
        }
      }
    }
    node {
      name: "random_normal_3/shape"
      op: "Const"
      attr {
        key: "_output_shapes"
        value {
          list {
            shape {
              dim {
                size: 2
              }
            }
          }
        }
      }
      attr {
        key: "dtype"
        value {
          type: DT_INT32
        }
      }
      attr {
        key: "value"
        value {
          tensor {
            dtype: DT_INT32
            tensor_shape {
              dim {
                size: 2
              }
            }
            tensor_content: "\000\004\000\000\005\000\000\000"
          }
        }
      }
    }
    node {
      name: "random_normal_3/mean"
      op: "Const"
      attr {
        key: "_output_shapes"
        value {
          list {
            shape {
            }
          }
        }
      }
      attr {
        key: "dtype"
        value {
          type: DT_FLOAT
        }
      }
      attr {
        key: "value"
        value {
          tensor {
            dtype: DT_FLOAT
            tensor_shape {
            }
            float_val: 0.0
          }
        }
      }
    }
    node {
      name: "random_normal_3/stddev"
      op: "Const"
      attr {
        key: "_output_shapes"
        value {
          list {
            shape {
            }
          }
        }
      }
      attr {
        key: "dtype"
        value {
          type: DT_FLOAT
        }
      }
      attr {
        key: "value"
        value {
          tensor {
            dtype: DT_FLOAT
            tensor_shape {
            }
            float_val: 1.0
          }
        }
      }
    }
    node {
      name: "random_normal_3/RandomStandardNormal"
      op: "RandomStandardNormal"
      input: "random_normal_3/shape"
      attr {
        key: "T"
        value {
          type: DT_INT32
        }
      }
      attr {
        key: "_output_shapes"
        value {
          list {
            shape {
              dim {
                size: 1024
              }
              dim {
                size: 5
              }
            }
          }
        }
      }
      attr {
        key: "dtype"
        value {
          type: DT_FLOAT
        }
      }
      attr {
        key: "seed"
        value {
          i: 0
        }
      }
      attr {
        key: "seed2"
        value {
          i: 0
        }
      }
    }
    node {
      name: "random_normal_3/mul"
      op: "Mul"
      input: "random_normal_3/RandomStandardNormal"
      input: "random_normal_3/stddev"
      attr {
        key: "T"
        value {
          type: DT_FLOAT
        }
      }
      attr {
        key: "_output_shapes"
        value {
          list {
            shape {
              dim {
                size: 1024
              }
              dim {
                size: 5
              }
            }
          }
        }
      }
    }
    node {
      name: "random_normal_3"
      op: "Add"
      input: "random_normal_3/mul"
      input: "random_normal_3/mean"
      attr {
        key: "T"
        value {
          type: DT_FLOAT
        }
      }
      attr {
        key: "_output_shapes"
        value {
          list {
            shape {
              dim {
                size: 1024
              }
              dim {
                size: 5
              }
            }
          }
        }
      }
    }
    node {
      name: "Variable_3"
      op: "VariableV2"
      attr {
        key: "_output_shapes"
        value {
          list {
            shape {
              dim {
                size: 1024
              }
              dim {
                size: 5
              }
            }
          }
        }
      }
      attr {
        key: "container"
        value {
          s: ""
        }
      }
      attr {
        key: "dtype"
        value {
          type: DT_FLOAT
        }
      }
      attr {
        key: "shape"
        value {
          shape {
            dim {
              size: 1024
            }
            dim {
              size: 5
            }
          }
        }
      }
      attr {
        key: "shared_name"
        value {
          s: ""
        }
      }
    }
    node {
      name: "Variable_3/Assign"
      op: "Assign"
      input: "Variable_3"
      input: "random_normal_3"
      attr {
        key: "T"
        value {
          type: DT_FLOAT
        }
      }
      attr {
        key: "_class"
        value {
          list {
            s: "loc:@Variable_3"
          }
        }
      }
      attr {
        key: "_output_shapes"
        value {
          list {
            shape {
              dim {
                size: 1024
              }
              dim {
                size: 5
              }
            }
          }
        }
      }
      attr {
        key: "use_locking"
        value {
          b: true
        }
      }
      attr {
        key: "validate_shape"
        value {
          b: true
        }
      }
    }
    node {
      name: "Variable_3/read"
      op: "Identity"
      input: "Variable_3"
      attr {
        key: "T"
        value {
          type: DT_FLOAT
        }
      }
      attr {
        key: "_class"
        value {
          list {
            s: "loc:@Variable_3"
          }
        }
      }
      attr {
        key: "_output_shapes"
        value {
          list {
            shape {
              dim {
                size: 1024
              }
              dim {
                size: 5
              }
            }
          }
        }
      }
    }
    node {
      name: "random_normal_4/shape"
      op: "Const"
      attr {
        key: "_output_shapes"
        value {
          list {
            shape {
              dim {
                size: 1
              }
            }
          }
        }
      }
      attr {
        key: "dtype"
        value {
          type: DT_INT32
        }
      }
      attr {
        key: "value"
        value {
          tensor {
            dtype: DT_INT32
            tensor_shape {
              dim {
                size: 1
              }
            }
            int_val: 32
          }
        }
      }
    }
    node {
      name: "random_normal_4/mean"
      op: "Const"
      attr {
        key: "_output_shapes"
        value {
          list {
            shape {
            }
          }
        }
      }
      attr {
        key: "dtype"
        value {
          type: DT_FLOAT
        }
      }
      attr {
        key: "value"
        value {
          tensor {
            dtype: DT_FLOAT
            tensor_shape {
            }
            float_val: 0.0
          }
        }
      }
    }
    node {
      name: "random_normal_4/stddev"
      op: "Const"
      attr {
        key: "_output_shapes"
        value {
          list {
            shape {
            }
          }
        }
      }
      attr {
        key: "dtype"
        value {
          type: DT_FLOAT
        }
      }
      attr {
        key: "value"
        value {
          tensor {
            dtype: DT_FLOAT
            tensor_shape {
            }
            float_val: 1.0
          }
        }
      }
    }
    node {
      name: "random_normal_4/RandomStandardNormal"
      op: "RandomStandardNormal"
      input: "random_normal_4/shape"
      attr {
        key: "T"
        value {
          type: DT_INT32
        }
      }
      attr {
        key: "_output_shapes"
        value {
          list {
            shape {
              dim {
                size: 32
              }
            }
          }
        }
      }
      attr {
        key: "dtype"
        value {
          type: DT_FLOAT
        }
      }
      attr {
        key: "seed"
        value {
          i: 0
        }
      }
      attr {
        key: "seed2"
        value {
          i: 0
        }
      }
    }
    node {
      name: "random_normal_4/mul"
      op: "Mul"
      input: "random_normal_4/RandomStandardNormal"
      input: "random_normal_4/stddev"
      attr {
        key: "T"
        value {
          type: DT_FLOAT
        }
      }
      attr {
        key: "_output_shapes"
        value {
          list {
            shape {
              dim {
                size: 32
              }
            }
          }
        }
      }
    }
    node {
      name: "random_normal_4"
      op: "Add"
      input: "random_normal_4/mul"
      input: "random_normal_4/mean"
      attr {
        key: "T"
        value {
          type: DT_FLOAT
        }
      }
      attr {
        key: "_output_shapes"
        value {
          list {
            shape {
              dim {
                size: 32
              }
            }
          }
        }
      }
    }
    node {
      name: "Variable_4"
      op: "VariableV2"
      attr {
        key: "_output_shapes"
        value {
          list {
            shape {
              dim {
                size: 32
              }
            }
          }
        }
      }
      attr {
        key: "container"
        value {
          s: ""
        }
      }
      attr {
        key: "dtype"
        value {
          type: DT_FLOAT
        }
      }
      attr {
        key: "shape"
        value {
          shape {
            dim {
              size: 32
            }
          }
        }
      }
      attr {
        key: "shared_name"
        value {
          s: ""
        }
      }
    }
    node {
      name: "Variable_4/Assign"
      op: "Assign"
      input: "Variable_4"
      input: "random_normal_4"
      attr {
        key: "T"
        value {
          type: DT_FLOAT
        }
      }
      attr {
        key: "_class"
        value {
          list {
            s: "loc:@Variable_4"
          }
        }
      }
      attr {
        key: "_output_shapes"
        value {
          list {
            shape {
              dim {
                size: 32
              }
            }
          }
        }
      }
      attr {
        key: "use_locking"
        value {
          b: true
        }
      }
      attr {
        key: "validate_shape"
        value {
          b: true
        }
      }
    }
    node {
      name: "Variable_4/read"
      op: "Identity"
      input: "Variable_4"
      attr {
        key: "T"
        value {
          type: DT_FLOAT
        }
      }
      attr {
        key: "_class"
        value {
          list {
            s: "loc:@Variable_4"
          }
        }
      }
      attr {
        key: "_output_shapes"
        value {
          list {
            shape {
              dim {
                size: 32
              }
            }
          }
        }
      }
    }
    node {
      name: "random_normal_5/shape"
      op: "Const"
      attr {
        key: "_output_shapes"
        value {
          list {
            shape {
              dim {
                size: 1
              }
            }
          }
        }
      }
      attr {
        key: "dtype"
        value {
          type: DT_INT32
        }
      }
      attr {
        key: "value"
        value {
          tensor {
            dtype: DT_INT32
            tensor_shape {
              dim {
                size: 1
              }
            }
            int_val: 64
          }
        }
      }
    }
    node {
      name: "random_normal_5/mean"
      op: "Const"
      attr {
        key: "_output_shapes"
        value {
          list {
            shape {
            }
          }
        }
      }
      attr {
        key: "dtype"
        value {
          type: DT_FLOAT
        }
      }
      attr {
        key: "value"
        value {
          tensor {
            dtype: DT_FLOAT
            tensor_shape {
            }
            float_val: 0.0
          }
        }
      }
    }
    node {
      name: "random_normal_5/stddev"
      op: "Const"
      attr {
        key: "_output_shapes"
        value {
          list {
            shape {
            }
          }
        }
      }
      attr {
        key: "dtype"
        value {
          type: DT_FLOAT
        }
      }
      attr {
        key: "value"
        value {
          tensor {
            dtype: DT_FLOAT
            tensor_shape {
            }
            float_val: 1.0
          }
        }
      }
    }
    node {
      name: "random_normal_5/RandomStandardNormal"
      op: "RandomStandardNormal"
      input: "random_normal_5/shape"
      attr {
        key: "T"
        value {
          type: DT_INT32
        }
      }
      attr {
        key: "_output_shapes"
        value {
          list {
            shape {
              dim {
                size: 64
              }
            }
          }
        }
      }
      attr {
        key: "dtype"
        value {
          type: DT_FLOAT
        }
      }
      attr {
        key: "seed"
        value {
          i: 0
        }
      }
      attr {
        key: "seed2"
        value {
          i: 0
        }
      }
    }
    node {
      name: "random_normal_5/mul"
      op: "Mul"
      input: "random_normal_5/RandomStandardNormal"
      input: "random_normal_5/stddev"
      attr {
        key: "T"
        value {
          type: DT_FLOAT
        }
      }
      attr {
        key: "_output_shapes"
        value {
          list {
            shape {
              dim {
                size: 64
              }
            }
          }
        }
      }
    }
    node {
      name: "random_normal_5"
      op: "Add"
      input: "random_normal_5/mul"
      input: "random_normal_5/mean"
      attr {
        key: "T"
        value {
          type: DT_FLOAT
        }
      }
      attr {
        key: "_output_shapes"
        value {
          list {
            shape {
              dim {
                size: 64
              }
            }
          }
        }
      }
    }
    node {
      name: "Variable_5"
      op: "VariableV2"
      attr {
        key: "_output_shapes"
        value {
          list {
            shape {
              dim {
                size: 64
              }
            }
          }
        }
      }
      attr {
        key: "container"
        value {
          s: ""
        }
      }
      attr {
        key: "dtype"
        value {
          type: DT_FLOAT
        }
      }
      attr {
        key: "shape"
        value {
          shape {
            dim {
              size: 64
            }
          }
        }
      }
      attr {
        key: "shared_name"
        value {
          s: ""
        }
      }
    }
    node {
      name: "Variable_5/Assign"
      op: "Assign"
      input: "Variable_5"
      input: "random_normal_5"
      attr {
        key: "T"
        value {
          type: DT_FLOAT
        }
      }
      attr {
        key: "_class"
        value {
          list {
            s: "loc:@Variable_5"
          }
        }
      }
      attr {
        key: "_output_shapes"
        value {
          list {
            shape {
              dim {
                size: 64
              }
            }
          }
        }
      }
      attr {
        key: "use_locking"
        value {
          b: true
        }
      }
      attr {
        key: "validate_shape"
        value {
          b: true
        }
      }
    }
    node {
      name: "Variable_5/read"
      op: "Identity"
      input: "Variable_5"
      attr {
        key: "T"
        value {
          type: DT_FLOAT
        }
      }
      attr {
        key: "_class"
        value {
          list {
            s: "loc:@Variable_5"
          }
        }
      }
      attr {
        key: "_output_shapes"
        value {
          list {
            shape {
              dim {
                size: 64
              }
            }
          }
        }
      }
    }
    node {
      name: "random_normal_6/shape"
      op: "Const"
      attr {
        key: "_output_shapes"
        value {
          list {
            shape {
              dim {
                size: 1
              }
            }
          }
        }
      }
      attr {
        key: "dtype"
        value {
          type: DT_INT32
        }
      }
      attr {
        key: "value"
        value {
          tensor {
            dtype: DT_INT32
            tensor_shape {
              dim {
                size: 1
              }
            }
            int_val: 1024
          }
        }
      }
    }
    node {
      name: "random_normal_6/mean"
      op: "Const"
      attr {
        key: "_output_shapes"
        value {
          list {
            shape {
            }
          }
        }
      }
      attr {
        key: "dtype"
        value {
          type: DT_FLOAT
        }
      }
      attr {
        key: "value"
        value {
          tensor {
            dtype: DT_FLOAT
            tensor_shape {
            }
            float_val: 0.0
          }
        }
      }
    }
    node {
      name: "random_normal_6/stddev"
      op: "Const"
      attr {
        key: "_output_shapes"
        value {
          list {
            shape {
            }
          }
        }
      }
      attr {
        key: "dtype"
        value {
          type: DT_FLOAT
        }
      }
      attr {
        key: "value"
        value {
          tensor {
            dtype: DT_FLOAT
            tensor_shape {
            }
            float_val: 1.0
          }
        }
      }
    }
    node {
      name: "random_normal_6/RandomStandardNormal"
      op: "RandomStandardNormal"
      input: "random_normal_6/shape"
      attr {
        key: "T"
        value {
          type: DT_INT32
        }
      }
      attr {
        key: "_output_shapes"
        value {
          list {
            shape {
              dim {
                size: 1024
              }
            }
          }
        }
      }
      attr {
        key: "dtype"
        value {
          type: DT_FLOAT
        }
      }
      attr {
        key: "seed"
        value {
          i: 0
        }
      }
      attr {
        key: "seed2"
        value {
          i: 0
        }
      }
    }
    node {
      name: "random_normal_6/mul"
      op: "Mul"
      input: "random_normal_6/RandomStandardNormal"
      input: "random_normal_6/stddev"
      attr {
        key: "T"
        value {
          type: DT_FLOAT
        }
      }
      attr {
        key: "_output_shapes"
        value {
          list {
            shape {
              dim {
                size: 1024
              }
            }
          }
        }
      }
    }
    node {
      name: "random_normal_6"
      op: "Add"
      input: "random_normal_6/mul"
      input: "random_normal_6/mean"
      attr {
        key: "T"
        value {
          type: DT_FLOAT
        }
      }
      attr {
        key: "_output_shapes"
        value {
          list {
            shape {
              dim {
                size: 1024
              }
            }
          }
        }
      }
    }
    node {
      name: "Variable_6"
      op: "VariableV2"
      attr {
        key: "_output_shapes"
        value {
          list {
            shape {
              dim {
                size: 1024
              }
            }
          }
        }
      }
      attr {
        key: "container"
        value {
          s: ""
        }
      }
      attr {
        key: "dtype"
        value {
          type: DT_FLOAT
        }
      }
      attr {
        key: "shape"
        value {
          shape {
            dim {
              size: 1024
            }
          }
        }
      }
      attr {
        key: "shared_name"
        value {
          s: ""
        }
      }
    }
    node {
      name: "Variable_6/Assign"
      op: "Assign"
      input: "Variable_6"
      input: "random_normal_6"
      attr {
        key: "T"
        value {
          type: DT_FLOAT
        }
      }
      attr {
        key: "_class"
        value {
          list {
            s: "loc:@Variable_6"
          }
        }
      }
      attr {
        key: "_output_shapes"
        value {
          list {
            shape {
              dim {
                size: 1024
              }
            }
          }
        }
      }
      attr {
        key: "use_locking"
        value {
          b: true
        }
      }
      attr {
        key: "validate_shape"
        value {
          b: true
        }
      }
    }
    node {
      name: "Variable_6/read"
      op: "Identity"
      input: "Variable_6"
      attr {
        key: "T"
        value {
          type: DT_FLOAT
        }
      }
      attr {
        key: "_class"
        value {
          list {
            s: "loc:@Variable_6"
          }
        }
      }
      attr {
        key: "_output_shapes"
        value {
          list {
            shape {
              dim {
                size: 1024
              }
            }
          }
        }
      }
    }
    node {
      name: "random_normal_7/shape"
      op: "Const"
      attr {
        key: "_output_shapes"
        value {
          list {
            shape {
              dim {
                size: 1
              }
            }
          }
        }
      }
      attr {
        key: "dtype"
        value {
          type: DT_INT32
        }
      }
      attr {
        key: "value"
        value {
          tensor {
            dtype: DT_INT32
            tensor_shape {
              dim {
                size: 1
              }
            }
            int_val: 5
          }
        }
      }
    }
    node {
      name: "random_normal_7/mean"
      op: "Const"
      attr {
        key: "_output_shapes"
        value {
          list {
            shape {
            }
          }
        }
      }
      attr {
        key: "dtype"
        value {
          type: DT_FLOAT
        }
      }
      attr {
        key: "value"
        value {
          tensor {
            dtype: DT_FLOAT
            tensor_shape {
            }
            float_val: 0.0
          }
        }
      }
    }
    node {
      name: "random_normal_7/stddev"
      op: "Const"
      attr {
        key: "_output_shapes"
        value {
          list {
            shape {
            }
          }
        }
      }
      attr {
        key: "dtype"
        value {
          type: DT_FLOAT
        }
      }
      attr {
        key: "value"
        value {
          tensor {
            dtype: DT_FLOAT
            tensor_shape {
            }
            float_val: 1.0
          }
        }
      }
    }
    node {
      name: "random_normal_7/RandomStandardNormal"
      op: "RandomStandardNormal"
      input: "random_normal_7/shape"
      attr {
        key: "T"
        value {
          type: DT_INT32
        }
      }
      attr {
        key: "_output_shapes"
        value {
          list {
            shape {
              dim {
                size: 5
              }
            }
          }
        }
      }
      attr {
        key: "dtype"
        value {
          type: DT_FLOAT
        }
      }
      attr {
        key: "seed"
        value {
          i: 0
        }
      }
      attr {
        key: "seed2"
        value {
          i: 0
        }
      }
    }
    node {
      name: "random_normal_7/mul"
      op: "Mul"
      input: "random_normal_7/RandomStandardNormal"
      input: "random_normal_7/stddev"
      attr {
        key: "T"
        value {
          type: DT_FLOAT
        }
      }
      attr {
        key: "_output_shapes"
        value {
          list {
            shape {
              dim {
                size: 5
              }
            }
          }
        }
      }
    }
    node {
      name: "random_normal_7"
      op: "Add"
      input: "random_normal_7/mul"
      input: "random_normal_7/mean"
      attr {
        key: "T"
        value {
          type: DT_FLOAT
        }
      }
      attr {
        key: "_output_shapes"
        value {
          list {
            shape {
              dim {
                size: 5
              }
            }
          }
        }
      }
    }
    node {
      name: "Variable_7"
      op: "VariableV2"
      attr {
        key: "_output_shapes"
        value {
          list {
            shape {
              dim {
                size: 5
              }
            }
          }
        }
      }
      attr {
        key: "container"
        value {
          s: ""
        }
      }
      attr {
        key: "dtype"
        value {
          type: DT_FLOAT
        }
      }
      attr {
        key: "shape"
        value {
          shape {
            dim {
              size: 5
            }
          }
        }
      }
      attr {
        key: "shared_name"
        value {
          s: ""
        }
      }
    }
    node {
      name: "Variable_7/Assign"
      op: "Assign"
      input: "Variable_7"
      input: "random_normal_7"
      attr {
        key: "T"
        value {
          type: DT_FLOAT
        }
      }
      attr {
        key: "_class"
        value {
          list {
            s: "loc:@Variable_7"
          }
        }
      }
      attr {
        key: "_output_shapes"
        value {
          list {
            shape {
              dim {
                size: 5
              }
            }
          }
        }
      }
      attr {
        key: "use_locking"
        value {
          b: true
        }
      }
      attr {
        key: "validate_shape"
        value {
          b: true
        }
      }
    }
    node {
      name: "Variable_7/read"
      op: "Identity"
      input: "Variable_7"
      attr {
        key: "T"
        value {
          type: DT_FLOAT
        }
      }
      attr {
        key: "_class"
        value {
          list {
            s: "loc:@Variable_7"
          }
        }
      }
      attr {
        key: "_output_shapes"
        value {
          list {
            shape {
              dim {
                size: 5
              }
            }
          }
        }
      }
    }
    node {
      name: "Reshape/shape"
      op: "Const"
      attr {
        key: "_output_shapes"
        value {
          list {
            shape {
              dim {
                size: 4
              }
            }
          }
        }
      }
      attr {
        key: "dtype"
        value {
          type: DT_INT32
        }
      }
      attr {
        key: "value"
        value {
          tensor {
            dtype: DT_INT32
            tensor_shape {
              dim {
                size: 4
              }
            }
            tensor_content: "\377\377\377\377L\000\000\000\210\000\000\000\001\000\000\000"
          }
        }
      }
    }
    node {
      name: "Reshape"
      op: "Reshape"
      input: "input"
      input: "Reshape/shape"
      attr {
        key: "T"
        value {
          type: DT_FLOAT
        }
      }
      attr {
        key: "Tshape"
        value {
          type: DT_INT32
        }
      }
      attr {
        key: "_output_shapes"
        value {
          list {
            shape {
              dim {
                size: -1
              }
              dim {
                size: 76
              }
              dim {
                size: 136
              }
              dim {
                size: 1
              }
            }
          }
        }
      }
    }
    node {
      name: "add"
      op: "Add"
      input: "Variable/read"
      input: "Variable_4/read"
      attr {
        key: "T"
        value {
          type: DT_FLOAT
        }
      }
      attr {
        key: "_output_shapes"
        value {
          list {
            shape {
              dim {
                size: 5
              }
              dim {
                size: 5
              }
              dim {
                size: 1
              }
              dim {
                size: 32
              }
            }
          }
        }
      }
    }
    node {
      name: "Conv2D"
      op: "Conv2D"
      input: "Reshape"
      input: "add"
      attr {
        key: "T"
        value {
          type: DT_FLOAT
        }
      }
      attr {
        key: "_output_shapes"
        value {
          list {
            shape {
              dim {
                size: -1
              }
              dim {
                size: 76
              }
              dim {
                size: 136
              }
              dim {
                size: 32
              }
            }
          }
        }
      }
      attr {
        key: "data_format"
        value {
          s: "NHWC"
        }
      }
      attr {
        key: "padding"
        value {
          s: "SAME"
        }
      }
      attr {
        key: "strides"
        value {
          list {
            i: 1
            i: 1
            i: 1
            i: 1
          }
        }
      }
      attr {
        key: "use_cudnn_on_gpu"
        value {
          b: true
        }
      }
    }
    node {
      name: "MaxPool"
      op: "MaxPool"
      input: "Conv2D"
      attr {
        key: "T"
        value {
          type: DT_FLOAT
        }
      }
      attr {
        key: "_output_shapes"
        value {
          list {
            shape {
              dim {
                size: -1
              }
              dim {
                size: 38
              }
              dim {
                size: 68
              }
              dim {
                size: 32
              }
            }
          }
        }
      }
      attr {
        key: "data_format"
        value {
          s: "NHWC"
        }
      }
      attr {
        key: "ksize"
        value {
          list {
            i: 1
            i: 2
            i: 2
            i: 1
          }
        }
      }
      attr {
        key: "padding"
        value {
          s: "SAME"
        }
      }
      attr {
        key: "strides"
        value {
          list {
            i: 1
            i: 2
            i: 2
            i: 1
          }
        }
      }
    }
    node {
      name: "add_1"
      op: "Add"
      input: "Variable_1/read"
      input: "Variable_5/read"
      attr {
        key: "T"
        value {
          type: DT_FLOAT
        }
      }
      attr {
        key: "_output_shapes"
        value {
          list {
            shape {
              dim {
                size: 5
              }
              dim {
                size: 5
              }
              dim {
                size: 32
              }
              dim {
                size: 64
              }
            }
          }
        }
      }
    }
    node {
      name: "Conv2D_1"
      op: "Conv2D"
      input: "MaxPool"
      input: "add_1"
      attr {
        key: "T"
        value {
          type: DT_FLOAT
        }
      }
      attr {
        key: "_output_shapes"
        value {
          list {
            shape {
              dim {
                size: -1
              }
              dim {
                size: 38
              }
              dim {
                size: 68
              }
              dim {
                size: 64
              }
            }
          }
        }
      }
      attr {
        key: "data_format"
        value {
          s: "NHWC"
        }
      }
      attr {
        key: "padding"
        value {
          s: "SAME"
        }
      }
      attr {
        key: "strides"
        value {
          list {
            i: 1
            i: 1
            i: 1
            i: 1
          }
        }
      }
      attr {
        key: "use_cudnn_on_gpu"
        value {
          b: true
        }
      }
    }
    node {
      name: "MaxPool_1"
      op: "MaxPool"
      input: "Conv2D_1"
      attr {
        key: "T"
        value {
          type: DT_FLOAT
        }
      }
      attr {
        key: "_output_shapes"
        value {
          list {
            shape {
              dim {
                size: -1
              }
              dim {
                size: 19
              }
              dim {
                size: 34
              }
              dim {
                size: 64
              }
            }
          }
        }
      }
      attr {
        key: "data_format"
        value {
          s: "NHWC"
        }
      }
      attr {
        key: "ksize"
        value {
          list {
            i: 1
            i: 2
            i: 2
            i: 1
          }
        }
      }
      attr {
        key: "padding"
        value {
          s: "SAME"
        }
      }
      attr {
        key: "strides"
        value {
          list {
            i: 1
            i: 2
            i: 2
            i: 1
          }
        }
      }
    }
    node {
      name: "Reshape_1/shape"
      op: "Const"
      attr {
        key: "_output_shapes"
        value {
          list {
            shape {
              dim {
                size: 2
              }
            }
          }
        }
      }
      attr {
        key: "dtype"
        value {
          type: DT_INT32
        }
      }
      attr {
        key: "value"
        value {
          tensor {
            dtype: DT_INT32
            tensor_shape {
              dim {
                size: 2
              }
            }
            tensor_content: "\377\377\377\377\200\241\000\000"
          }
        }
      }
    }
    node {
      name: "Reshape_1"
      op: "Reshape"
      input: "MaxPool_1"
      input: "Reshape_1/shape"
      attr {
        key: "T"
        value {
          type: DT_FLOAT
        }
      }
      attr {
        key: "Tshape"
        value {
          type: DT_INT32
        }
      }
      attr {
        key: "_output_shapes"
        value {
          list {
            shape {
              dim {
                size: -1
              }
              dim {
                size: 41344
              }
            }
          }
        }
      }
    }
    node {
      name: "MatMul"
      op: "MatMul"
      input: "Reshape_1"
      input: "Variable_2/read"
      attr {
        key: "T"
        value {
          type: DT_FLOAT
        }
      }
      attr {
        key: "_output_shapes"
        value {
          list {
            shape {
              dim {
                size: -1
              }
              dim {
                size: 1024
              }
            }
          }
        }
      }
      attr {
        key: "transpose_a"
        value {
          b: false
        }
      }
      attr {
        key: "transpose_b"
        value {
          b: false
        }
      }
    }
    node {
      name: "add_2"
      op: "Add"
      input: "MatMul"
      input: "Variable_6/read"
      attr {
        key: "T"
        value {
          type: DT_FLOAT
        }
      }
      attr {
        key: "_output_shapes"
        value {
          list {
            shape {
              dim {
                size: -1
              }
              dim {
                size: 1024
              }
            }
          }
        }
      }
    }
    node {
      name: "Relu"
      op: "Relu"
      input: "add_2"
      attr {
        key: "T"
        value {
          type: DT_FLOAT
        }
      }
      attr {
        key: "_output_shapes"
        value {
          list {
            shape {
              dim {
                size: -1
              }
              dim {
                size: 1024
              }
            }
          }
        }
      }
    }
    node {
      name: "MatMul_1"
      op: "MatMul"
      input: "Relu"
      input: "Variable_3/read"
      attr {
        key: "T"
        value {
          type: DT_FLOAT
        }
      }
      attr {
        key: "_output_shapes"
        value {
          list {
            shape {
              dim {
                size: -1
              }
              dim {
                size: 5
              }
            }
          }
        }
      }
      attr {
        key: "transpose_a"
        value {
          b: false
        }
      }
      attr {
        key: "transpose_b"
        value {
          b: false
        }
      }
    }
    node {
      name: "add_3"
      op: "Add"
      input: "MatMul_1"
      input: "Variable_7/read"
      attr {
        key: "T"
        value {
          type: DT_FLOAT
        }
      }
      attr {
        key: "_output_shapes"
        value {
          list {
            shape {
              dim {
                size: -1
              }
              dim {
                size: 5
              }
            }
          }
        }
      }
    }
    node {
      name: "output"
      op: "Identity"
      input: "add_3"
      attr {
        key: "T"
        value {
          type: DT_FLOAT
        }
      }
      attr {
        key: "_output_shapes"
        value {
          list {
            shape {
              dim {
                size: -1
              }
              dim {
                size: 5
              }
            }
          }
        }
      }
    }
    node {
      name: "actual"
      op: "Placeholder"
      attr {
        key: "_output_shapes"
        value {
          list {
            shape {
              dim {
                size: 1
              }
              dim {
                size: 5
              }
            }
          }
        }
      }
      attr {
        key: "dtype"
        value {
          type: DT_FLOAT
        }
      }
      attr {
        key: "shape"
        value {
          shape {
            dim {
              size: 1
            }
            dim {
              size: 5
            }
          }
        }
      }
    }
    node {
      name: "sub"
      op: "Sub"
      input: "actual"
      input: "output"
      attr {
        key: "T"
        value {
          type: DT_FLOAT
        }
      }
      attr {
        key: "_output_shapes"
        value {
          list {
            shape {
              dim {
                size: -1
              }
              dim {
                size: 5
              }
            }
          }
        }
      }
    }
    node {
      name: "Square"
      op: "Square"
      input: "sub"
      attr {
        key: "T"
        value {
          type: DT_FLOAT
        }
      }
      attr {
        key: "_output_shapes"
        value {
          list {
            shape {
              dim {
                size: -1
              }
              dim {
                size: 5
              }
            }
          }
        }
      }
    }
    node {
      name: "Const"
      op: "Const"
      attr {
        key: "_output_shapes"
        value {
          list {
            shape {
              dim {
                size: 2
              }
            }
          }
        }
      }
      attr {
        key: "dtype"
        value {
          type: DT_INT32
        }
      }
      attr {
        key: "value"
        value {
          tensor {
            dtype: DT_INT32
            tensor_shape {
              dim {
                size: 2
              }
            }
            tensor_content: "\000\000\000\000\001\000\000\000"
          }
        }
      }
    }
    node {
      name: "Sum"
      op: "Sum"
      input: "Square"
      input: "Const"
      attr {
        key: "T"
        value {
          type: DT_FLOAT
        }
      }
      attr {
        key: "Tidx"
        value {
          type: DT_INT32
        }
      }
      attr {
        key: "_output_shapes"
        value {
          list {
            shape {
            }
          }
        }
      }
      attr {
        key: "keep_dims"
        value {
          b: false
        }
      }
    }
    node {
      name: "gradients/Shape"
      op: "Const"
      attr {
        key: "_output_shapes"
        value {
          list {
            shape {
              dim {
              }
            }
          }
        }
      }
      attr {
        key: "dtype"
        value {
          type: DT_INT32
        }
      }
      attr {
        key: "value"
        value {
          tensor {
            dtype: DT_INT32
            tensor_shape {
              dim {
              }
            }
          }
        }
      }
    }
    node {
      name: "gradients/Const"
      op: "Const"
      attr {
        key: "_output_shapes"
        value {
          list {
            shape {
            }
          }
        }
      }
      attr {
        key: "dtype"
        value {
          type: DT_FLOAT
        }
      }
      attr {
        key: "value"
        value {
          tensor {
            dtype: DT_FLOAT
            tensor_shape {
            }
            float_val: 1.0
          }
        }
      }
    }
    node {
      name: "gradients/Fill"
      op: "Fill"
      input: "gradients/Shape"
      input: "gradients/Const"
      attr {
        key: "T"
        value {
          type: DT_FLOAT
        }
      }
      attr {
        key: "_output_shapes"
        value {
          list {
            shape {
            }
          }
        }
      }
    }
    node {
      name: "gradients/Sum_grad/Reshape/shape"
      op: "Const"
      attr {
        key: "_output_shapes"
        value {
          list {
            shape {
              dim {
                size: 2
              }
            }
          }
        }
      }
      attr {
        key: "dtype"
        value {
          type: DT_INT32
        }
      }
      attr {
        key: "value"
        value {
          tensor {
            dtype: DT_INT32
            tensor_shape {
              dim {
                size: 2
              }
            }
            tensor_content: "\001\000\000\000\001\000\000\000"
          }
        }
      }
    }
    node {
      name: "gradients/Sum_grad/Reshape"
      op: "Reshape"
      input: "gradients/Fill"
      input: "gradients/Sum_grad/Reshape/shape"
      attr {
        key: "T"
        value {
          type: DT_FLOAT
        }
      }
      attr {
        key: "Tshape"
        value {
          type: DT_INT32
        }
      }
      attr {
        key: "_output_shapes"
        value {
          list {
            shape {
              dim {
                size: 1
              }
              dim {
                size: 1
              }
            }
          }
        }
      }
    }
    node {
      name: "gradients/Sum_grad/Shape"
      op: "Shape"
      input: "Square"
      attr {
        key: "T"
        value {
          type: DT_FLOAT
        }
      }
      attr {
        key: "_output_shapes"
        value {
          list {
            shape {
              dim {
                size: 2
              }
            }
          }
        }
      }
      attr {
        key: "out_type"
        value {
          type: DT_INT32
        }
      }
    }
    node {
      name: "gradients/Sum_grad/Tile"
      op: "Tile"
      input: "gradients/Sum_grad/Reshape"
      input: "gradients/Sum_grad/Shape"
      attr {
        key: "T"
        value {
          type: DT_FLOAT
        }
      }
      attr {
        key: "Tmultiples"
        value {
          type: DT_INT32
        }
      }
      attr {
        key: "_output_shapes"
        value {
          list {
            shape {
              dim {
                size: -1
              }
              dim {
                size: 5
              }
            }
          }
        }
      }
    }
    node {
      name: "gradients/Square_grad/mul/x"
      op: "Const"
      input: "^gradients/Sum_grad/Tile"
      attr {
        key: "_output_shapes"
        value {
          list {
            shape {
            }
          }
        }
      }
      attr {
        key: "dtype"
        value {
          type: DT_FLOAT
        }
      }
      attr {
        key: "value"
        value {
          tensor {
            dtype: DT_FLOAT
            tensor_shape {
            }
            float_val: 2.0
          }
        }
      }
    }
    node {
      name: "gradients/Square_grad/mul"
      op: "Mul"
      input: "gradients/Square_grad/mul/x"
      input: "sub"
      attr {
        key: "T"
        value {
          type: DT_FLOAT
        }
      }
      attr {
        key: "_output_shapes"
        value {
          list {
            shape {
              dim {
                size: -1
              }
              dim {
                size: 5
              }
            }
          }
        }
      }
    }
    node {
      name: "gradients/Square_grad/mul_1"
      op: "Mul"
      input: "gradients/Sum_grad/Tile"
      input: "gradients/Square_grad/mul"
      attr {
        key: "T"
        value {
          type: DT_FLOAT
        }
      }
      attr {
        key: "_output_shapes"
        value {
          list {
            shape {
              dim {
                size: -1
              }
              dim {
                size: 5
              }
            }
          }
        }
      }
    }
    node {
      name: "gradients/sub_grad/Shape"
      op: "Const"
      attr {
        key: "_output_shapes"
        value {
          list {
            shape {
              dim {
                size: 2
              }
            }
          }
        }
      }
      attr {
        key: "dtype"
        value {
          type: DT_INT32
        }
      }
      attr {
        key: "value"
        value {
          tensor {
            dtype: DT_INT32
            tensor_shape {
              dim {
                size: 2
              }
            }
            tensor_content: "\001\000\000\000\005\000\000\000"
          }
        }
      }
    }
    node {
      name: "gradients/sub_grad/Shape_1"
      op: "Shape"
      input: "output"
      attr {
        key: "T"
        value {
          type: DT_FLOAT
        }
      }
      attr {
        key: "_output_shapes"
        value {
          list {
            shape {
              dim {
                size: 2
              }
            }
          }
        }
      }
      attr {
        key: "out_type"
        value {
          type: DT_INT32
        }
      }
    }
    node {
      name: "gradients/sub_grad/BroadcastGradientArgs"
      op: "BroadcastGradientArgs"
      input: "gradients/sub_grad/Shape"
      input: "gradients/sub_grad/Shape_1"
      attr {
        key: "T"
        value {
          type: DT_INT32
        }
      }
      attr {
        key: "_output_shapes"
        value {
          list {
            shape {
              dim {
                size: -1
              }
            }
            shape {
              dim {
                size: -1
              }
            }
          }
        }
      }
    }
    node {
      name: "gradients/sub_grad/Sum"
      op: "Sum"
      input: "gradients/Square_grad/mul_1"
      input: "gradients/sub_grad/BroadcastGradientArgs"
      attr {
        key: "T"
        value {
          type: DT_FLOAT
        }
      }
      attr {
        key: "Tidx"
        value {
          type: DT_INT32
        }
      }
      attr {
        key: "_output_shapes"
        value {
          list {
            shape {
              unknown_rank: true
            }
          }
        }
      }
      attr {
        key: "keep_dims"
        value {
          b: false
        }
      }
    }
    node {
      name: "gradients/sub_grad/Reshape"
      op: "Reshape"
      input: "gradients/sub_grad/Sum"
      input: "gradients/sub_grad/Shape"
      attr {
        key: "T"
        value {
          type: DT_FLOAT
        }
      }
      attr {
        key: "Tshape"
        value {
          type: DT_INT32
        }
      }
      attr {
        key: "_output_shapes"
        value {
          list {
            shape {
              dim {
                size: 1
              }
              dim {
                size: 5
              }
            }
          }
        }
      }
    }
    node {
      name: "gradients/sub_grad/Sum_1"
      op: "Sum"
      input: "gradients/Square_grad/mul_1"
      input: "gradients/sub_grad/BroadcastGradientArgs:1"
      attr {
        key: "T"
        value {
          type: DT_FLOAT
        }
      }
      attr {
        key: "Tidx"
        value {
          type: DT_INT32
        }
      }
      attr {
        key: "_output_shapes"
        value {
          list {
            shape {
              unknown_rank: true
            }
          }
        }
      }
      attr {
        key: "keep_dims"
        value {
          b: false
        }
      }
    }
    node {
      name: "gradients/sub_grad/Neg"
      op: "Neg"
      input: "gradients/sub_grad/Sum_1"
      attr {
        key: "T"
        value {
          type: DT_FLOAT
        }
      }
      attr {
        key: "_output_shapes"
        value {
          list {
            shape {
              unknown_rank: true
            }
          }
        }
      }
    }
    node {
      name: "gradients/sub_grad/Reshape_1"
      op: "Reshape"
      input: "gradients/sub_grad/Neg"
      input: "gradients/sub_grad/Shape_1"
      attr {
        key: "T"
        value {
          type: DT_FLOAT
        }
      }
      attr {
        key: "Tshape"
        value {
          type: DT_INT32
        }
      }
      attr {
        key: "_output_shapes"
        value {
          list {
            shape {
              dim {
                size: -1
              }
              dim {
                size: 5
              }
            }
          }
        }
      }
    }
    node {
      name: "gradients/sub_grad/tuple/group_deps"
      op: "NoOp"
      input: "^gradients/sub_grad/Reshape"
      input: "^gradients/sub_grad/Reshape_1"
    }
    node {
      name: "gradients/sub_grad/tuple/control_dependency"
      op: "Identity"
      input: "gradients/sub_grad/Reshape"
      input: "^gradients/sub_grad/tuple/group_deps"
      attr {
        key: "T"
        value {
          type: DT_FLOAT
        }
      }
      attr {
        key: "_class"
        value {
          list {
            s: "loc:@gradients/sub_grad/Reshape"
          }
        }
      }
      attr {
        key: "_output_shapes"
        value {
          list {
            shape {
              dim {
                size: 1
              }
              dim {
                size: 5
              }
            }
          }
        }
      }
    }
    node {
      name: "gradients/sub_grad/tuple/control_dependency_1"
      op: "Identity"
      input: "gradients/sub_grad/Reshape_1"
      input: "^gradients/sub_grad/tuple/group_deps"
      attr {
        key: "T"
        value {
          type: DT_FLOAT
        }
      }
      attr {
        key: "_class"
        value {
          list {
            s: "loc:@gradients/sub_grad/Reshape_1"
          }
        }
      }
      attr {
        key: "_output_shapes"
        value {
          list {
            shape {
              dim {
                size: -1
              }
              dim {
                size: 5
              }
            }
          }
        }
      }
    }
    node {
      name: "gradients/add_3_grad/Shape"
      op: "Shape"
      input: "MatMul_1"
      attr {
        key: "T"
        value {
          type: DT_FLOAT
        }
      }
      attr {
        key: "_output_shapes"
        value {
          list {
            shape {
              dim {
                size: 2
              }
            }
          }
        }
      }
      attr {
        key: "out_type"
        value {
          type: DT_INT32
        }
      }
    }
    node {
      name: "gradients/add_3_grad/Shape_1"
      op: "Const"
      attr {
        key: "_output_shapes"
        value {
          list {
            shape {
              dim {
                size: 1
              }
            }
          }
        }
      }
      attr {
        key: "dtype"
        value {
          type: DT_INT32
        }
      }
      attr {
        key: "value"
        value {
          tensor {
            dtype: DT_INT32
            tensor_shape {
              dim {
                size: 1
              }
            }
            int_val: 5
          }
        }
      }
    }
    node {
      name: "gradients/add_3_grad/BroadcastGradientArgs"
      op: "BroadcastGradientArgs"
      input: "gradients/add_3_grad/Shape"
      input: "gradients/add_3_grad/Shape_1"
      attr {
        key: "T"
        value {
          type: DT_INT32
        }
      }
      attr {
        key: "_output_shapes"
        value {
          list {
            shape {
              dim {
                size: -1
              }
            }
            shape {
              dim {
                size: -1
              }
            }
          }
        }
      }
    }
    node {
      name: "gradients/add_3_grad/Sum"
      op: "Sum"
      input: "gradients/sub_grad/tuple/control_dependency_1"
      input: "gradients/add_3_grad/BroadcastGradientArgs"
      attr {
        key: "T"
        value {
          type: DT_FLOAT
        }
      }
      attr {
        key: "Tidx"
        value {
          type: DT_INT32
        }
      }
      attr {
        key: "_output_shapes"
        value {
          list {
            shape {
              unknown_rank: true
            }
          }
        }
      }
      attr {
        key: "keep_dims"
        value {
          b: false
        }
      }
    }
    node {
      name: "gradients/add_3_grad/Reshape"
      op: "Reshape"
      input: "gradients/add_3_grad/Sum"
      input: "gradients/add_3_grad/Shape"
      attr {
        key: "T"
        value {
          type: DT_FLOAT
        }
      }
      attr {
        key: "Tshape"
        value {
          type: DT_INT32
        }
      }
      attr {
        key: "_output_shapes"
        value {
          list {
            shape {
              dim {
                size: -1
              }
              dim {
                size: 5
              }
            }
          }
        }
      }
    }
    node {
      name: "gradients/add_3_grad/Sum_1"
      op: "Sum"
      input: "gradients/sub_grad/tuple/control_dependency_1"
      input: "gradients/add_3_grad/BroadcastGradientArgs:1"
      attr {
        key: "T"
        value {
          type: DT_FLOAT
        }
      }
      attr {
        key: "Tidx"
        value {
          type: DT_INT32
        }
      }
      attr {
        key: "_output_shapes"
        value {
          list {
            shape {
              unknown_rank: true
            }
          }
        }
      }
      attr {
        key: "keep_dims"
        value {
          b: false
        }
      }
    }
    node {
      name: "gradients/add_3_grad/Reshape_1"
      op: "Reshape"
      input: "gradients/add_3_grad/Sum_1"
      input: "gradients/add_3_grad/Shape_1"
      attr {
        key: "T"
        value {
          type: DT_FLOAT
        }
      }
      attr {
        key: "Tshape"
        value {
          type: DT_INT32
        }
      }
      attr {
        key: "_output_shapes"
        value {
          list {
            shape {
              dim {
                size: 5
              }
            }
          }
        }
      }
    }
    node {
      name: "gradients/add_3_grad/tuple/group_deps"
      op: "NoOp"
      input: "^gradients/add_3_grad/Reshape"
      input: "^gradients/add_3_grad/Reshape_1"
    }
    node {
      name: "gradients/add_3_grad/tuple/control_dependency"
      op: "Identity"
      input: "gradients/add_3_grad/Reshape"
      input: "^gradients/add_3_grad/tuple/group_deps"
      attr {
        key: "T"
        value {
          type: DT_FLOAT
        }
      }
      attr {
        key: "_class"
        value {
          list {
            s: "loc:@gradients/add_3_grad/Reshape"
          }
        }
      }
      attr {
        key: "_output_shapes"
        value {
          list {
            shape {
              dim {
                size: -1
              }
              dim {
                size: 5
              }
            }
          }
        }
      }
    }
    node {
      name: "gradients/add_3_grad/tuple/control_dependency_1"
      op: "Identity"
      input: "gradients/add_3_grad/Reshape_1"
      input: "^gradients/add_3_grad/tuple/group_deps"
      attr {
        key: "T"
        value {
          type: DT_FLOAT
        }
      }
      attr {
        key: "_class"
        value {
          list {
            s: "loc:@gradients/add_3_grad/Reshape_1"
          }
        }
      }
      attr {
        key: "_output_shapes"
        value {
          list {
            shape {
              dim {
                size: 5
              }
            }
          }
        }
      }
    }
    node {
      name: "gradients/MatMul_1_grad/MatMul"
      op: "MatMul"
      input: "gradients/add_3_grad/tuple/control_dependency"
      input: "Variable_3/read"
      attr {
        key: "T"
        value {
          type: DT_FLOAT
        }
      }
      attr {
        key: "_output_shapes"
        value {
          list {
            shape {
              dim {
                size: -1
              }
              dim {
                size: 1024
              }
            }
          }
        }
      }
      attr {
        key: "transpose_a"
        value {
          b: false
        }
      }
      attr {
        key: "transpose_b"
        value {
          b: true
        }
      }
    }
    node {
      name: "gradients/MatMul_1_grad/MatMul_1"
      op: "MatMul"
      input: "Relu"
      input: "gradients/add_3_grad/tuple/control_dependency"
      attr {
        key: "T"
        value {
          type: DT_FLOAT
        }
      }
      attr {
        key: "_output_shapes"
        value {
          list {
            shape {
              dim {
                size: 1024
              }
              dim {
                size: 5
              }
            }
          }
        }
      }
      attr {
        key: "transpose_a"
        value {
          b: true
        }
      }
      attr {
        key: "transpose_b"
        value {
          b: false
        }
      }
    }
    node {
      name: "gradients/MatMul_1_grad/tuple/group_deps"
      op: "NoOp"
      input: "^gradients/MatMul_1_grad/MatMul"
      input: "^gradients/MatMul_1_grad/MatMul_1"
    }
    node {
      name: "gradients/MatMul_1_grad/tuple/control_dependency"
      op: "Identity"
      input: "gradients/MatMul_1_grad/MatMul"
      input: "^gradients/MatMul_1_grad/tuple/group_deps"
      attr {
        key: "T"
        value {
          type: DT_FLOAT
        }
      }
      attr {
        key: "_class"
        value {
          list {
            s: "loc:@gradients/MatMul_1_grad/MatMul"
          }
        }
      }
      attr {
        key: "_output_shapes"
        value {
          list {
            shape {
              dim {
                size: -1
              }
              dim {
                size: 1024
              }
            }
          }
        }
      }
    }
    node {
      name: "gradients/MatMul_1_grad/tuple/control_dependency_1"
      op: "Identity"
      input: "gradients/MatMul_1_grad/MatMul_1"
      input: "^gradients/MatMul_1_grad/tuple/group_deps"
      attr {
        key: "T"
        value {
          type: DT_FLOAT
        }
      }
      attr {
        key: "_class"
        value {
          list {
            s: "loc:@gradients/MatMul_1_grad/MatMul_1"
          }
        }
      }
      attr {
        key: "_output_shapes"
        value {
          list {
            shape {
              dim {
                size: 1024
              }
              dim {
                size: 5
              }
            }
          }
        }
      }
    }
    node {
      name: "gradients/Relu_grad/ReluGrad"
      op: "ReluGrad"
      input: "gradients/MatMul_1_grad/tuple/control_dependency"
      input: "Relu"
      attr {
        key: "T"
        value {
          type: DT_FLOAT
        }
      }
      attr {
        key: "_output_shapes"
        value {
          list {
            shape {
              dim {
                size: -1
              }
              dim {
                size: 1024
              }
            }
          }
        }
      }
    }
    node {
      name: "gradients/add_2_grad/Shape"
      op: "Shape"
      input: "MatMul"
      attr {
        key: "T"
        value {
          type: DT_FLOAT
        }
      }
      attr {
        key: "_output_shapes"
        value {
          list {
            shape {
              dim {
                size: 2
              }
            }
          }
        }
      }
      attr {
        key: "out_type"
        value {
          type: DT_INT32
        }
      }
    }
    node {
      name: "gradients/add_2_grad/Shape_1"
      op: "Const"
      attr {
        key: "_output_shapes"
        value {
          list {
            shape {
              dim {
                size: 1
              }
            }
          }
        }
      }
      attr {
        key: "dtype"
        value {
          type: DT_INT32
        }
      }
      attr {
        key: "value"
        value {
          tensor {
            dtype: DT_INT32
            tensor_shape {
              dim {
                size: 1
              }
            }
            int_val: 1024
          }
        }
      }
    }
    node {
      name: "gradients/add_2_grad/BroadcastGradientArgs"
      op: "BroadcastGradientArgs"
      input: "gradients/add_2_grad/Shape"
      input: "gradients/add_2_grad/Shape_1"
      attr {
        key: "T"
        value {
          type: DT_INT32
        }
      }
      attr {
        key: "_output_shapes"
        value {
          list {
            shape {
              dim {
                size: -1
              }
            }
            shape {
              dim {
                size: -1
              }
            }
          }
        }
      }
    }
    node {
      name: "gradients/add_2_grad/Sum"
      op: "Sum"
      input: "gradients/Relu_grad/ReluGrad"
      input: "gradients/add_2_grad/BroadcastGradientArgs"
      attr {
        key: "T"
        value {
          type: DT_FLOAT
        }
      }
      attr {
        key: "Tidx"
        value {
          type: DT_INT32
        }
      }
      attr {
        key: "_output_shapes"
        value {
          list {
            shape {
              unknown_rank: true
            }
          }
        }
      }
      attr {
        key: "keep_dims"
        value {
          b: false
        }
      }
    }
    node {
      name: "gradients/add_2_grad/Reshape"
      op: "Reshape"
      input: "gradients/add_2_grad/Sum"
      input: "gradients/add_2_grad/Shape"
      attr {
        key: "T"
        value {
          type: DT_FLOAT
        }
      }
      attr {
        key: "Tshape"
        value {
          type: DT_INT32
        }
      }
      attr {
        key: "_output_shapes"
        value {
          list {
            shape {
              dim {
                size: -1
              }
              dim {
                size: 1024
              }
            }
          }
        }
      }
    }
    node {
      name: "gradients/add_2_grad/Sum_1"
      op: "Sum"
      input: "gradients/Relu_grad/ReluGrad"
      input: "gradients/add_2_grad/BroadcastGradientArgs:1"
      attr {
        key: "T"
        value {
          type: DT_FLOAT
        }
      }
      attr {
        key: "Tidx"
        value {
          type: DT_INT32
        }
      }
      attr {
        key: "_output_shapes"
        value {
          list {
            shape {
              unknown_rank: true
            }
          }
        }
      }
      attr {
        key: "keep_dims"
        value {
          b: false
        }
      }
    }
    node {
      name: "gradients/add_2_grad/Reshape_1"
      op: "Reshape"
      input: "gradients/add_2_grad/Sum_1"
      input: "gradients/add_2_grad/Shape_1"
      attr {
        key: "T"
        value {
          type: DT_FLOAT
        }
      }
      attr {
        key: "Tshape"
        value {
          type: DT_INT32
        }
      }
      attr {
        key: "_output_shapes"
        value {
          list {
            shape {
              dim {
                size: 1024
              }
            }
          }
        }
      }
    }
    node {
      name: "gradients/add_2_grad/tuple/group_deps"
      op: "NoOp"
      input: "^gradients/add_2_grad/Reshape"
      input: "^gradients/add_2_grad/Reshape_1"
    }
    node {
      name: "gradients/add_2_grad/tuple/control_dependency"
      op: "Identity"
      input: "gradients/add_2_grad/Reshape"
      input: "^gradients/add_2_grad/tuple/group_deps"
      attr {
        key: "T"
        value {
          type: DT_FLOAT
        }
      }
      attr {
        key: "_class"
        value {
          list {
            s: "loc:@gradients/add_2_grad/Reshape"
          }
        }
      }
      attr {
        key: "_output_shapes"
        value {
          list {
            shape {
              dim {
                size: -1
              }
              dim {
                size: 1024
              }
            }
          }
        }
      }
    }
    node {
      name: "gradients/add_2_grad/tuple/control_dependency_1"
      op: "Identity"
      input: "gradients/add_2_grad/Reshape_1"
      input: "^gradients/add_2_grad/tuple/group_deps"
      attr {
        key: "T"
        value {
          type: DT_FLOAT
        }
      }
      attr {
        key: "_class"
        value {
          list {
            s: "loc:@gradients/add_2_grad/Reshape_1"
          }
        }
      }
      attr {
        key: "_output_shapes"
        value {
          list {
            shape {
              dim {
                size: 1024
              }
            }
          }
        }
      }
    }
    node {
      name: "gradients/MatMul_grad/MatMul"
      op: "MatMul"
      input: "gradients/add_2_grad/tuple/control_dependency"
      input: "Variable_2/read"
      attr {
        key: "T"
        value {
          type: DT_FLOAT
        }
      }
      attr {
        key: "_output_shapes"
        value {
          list {
            shape {
              dim {
                size: -1
              }
              dim {
                size: 41344
              }
            }
          }
        }
      }
      attr {
        key: "transpose_a"
        value {
          b: false
        }
      }
      attr {
        key: "transpose_b"
        value {
          b: true
        }
      }
    }
    node {
      name: "gradients/MatMul_grad/MatMul_1"
      op: "MatMul"
      input: "Reshape_1"
      input: "gradients/add_2_grad/tuple/control_dependency"
      attr {
        key: "T"
        value {
          type: DT_FLOAT
        }
      }
      attr {
        key: "_output_shapes"
        value {
          list {
            shape {
              dim {
                size: 41344
              }
              dim {
                size: 1024
              }
            }
          }
        }
      }
      attr {
        key: "transpose_a"
        value {
          b: true
        }
      }
      attr {
        key: "transpose_b"
        value {
          b: false
        }
      }
    }
    node {
      name: "gradients/MatMul_grad/tuple/group_deps"
      op: "NoOp"
      input: "^gradients/MatMul_grad/MatMul"
      input: "^gradients/MatMul_grad/MatMul_1"
    }
    node {
      name: "gradients/MatMul_grad/tuple/control_dependency"
      op: "Identity"
      input: "gradients/MatMul_grad/MatMul"
      input: "^gradients/MatMul_grad/tuple/group_deps"
      attr {
        key: "T"
        value {
          type: DT_FLOAT
        }
      }
      attr {
        key: "_class"
        value {
          list {
            s: "loc:@gradients/MatMul_grad/MatMul"
          }
        }
      }
      attr {
        key: "_output_shapes"
        value {
          list {
            shape {
              dim {
                size: -1
              }
              dim {
                size: 41344
              }
            }
          }
        }
      }
    }
    node {
      name: "gradients/MatMul_grad/tuple/control_dependency_1"
      op: "Identity"
      input: "gradients/MatMul_grad/MatMul_1"
      input: "^gradients/MatMul_grad/tuple/group_deps"
      attr {
        key: "T"
        value {
          type: DT_FLOAT
        }
      }
      attr {
        key: "_class"
        value {
          list {
            s: "loc:@gradients/MatMul_grad/MatMul_1"
          }
        }
      }
      attr {
        key: "_output_shapes"
        value {
          list {
            shape {
              dim {
                size: 41344
              }
              dim {
                size: 1024
              }
            }
          }
        }
      }
    }
    node {
      name: "gradients/Reshape_1_grad/Shape"
      op: "Shape"
      input: "MaxPool_1"
      attr {
        key: "T"
        value {
          type: DT_FLOAT
        }
      }
      attr {
        key: "_output_shapes"
        value {
          list {
            shape {
              dim {
                size: 4
              }
            }
          }
        }
      }
      attr {
        key: "out_type"
        value {
          type: DT_INT32
        }
      }
    }
    node {
      name: "gradients/Reshape_1_grad/Reshape"
      op: "Reshape"
      input: "gradients/MatMul_grad/tuple/control_dependency"
      input: "gradients/Reshape_1_grad/Shape"
      attr {
        key: "T"
        value {
          type: DT_FLOAT
        }
      }
      attr {
        key: "Tshape"
        value {
          type: DT_INT32
        }
      }
      attr {
        key: "_output_shapes"
        value {
          list {
            shape {
              dim {
                size: -1
              }
              dim {
                size: 19
              }
              dim {
                size: 34
              }
              dim {
                size: 64
              }
            }
          }
        }
      }
    }
    node {
      name: "gradients/MaxPool_1_grad/MaxPoolGrad"
      op: "MaxPoolGrad"
      input: "Conv2D_1"
      input: "MaxPool_1"
      input: "gradients/Reshape_1_grad/Reshape"
      attr {
        key: "T"
        value {
          type: DT_FLOAT
        }
      }
      attr {
        key: "_output_shapes"
        value {
          list {
            shape {
              dim {
                size: -1
              }
              dim {
                size: 38
              }
              dim {
                size: 68
              }
              dim {
                size: 64
              }
            }
          }
        }
      }
      attr {
        key: "data_format"
        value {
          s: "NHWC"
        }
      }
      attr {
        key: "ksize"
        value {
          list {
            i: 1
            i: 2
            i: 2
            i: 1
          }
        }
      }
      attr {
        key: "padding"
        value {
          s: "SAME"
        }
      }
      attr {
        key: "strides"
        value {
          list {
            i: 1
            i: 2
            i: 2
            i: 1
          }
        }
      }
    }
    node {
      name: "gradients/Conv2D_1_grad/Shape"
      op: "Shape"
      input: "MaxPool"
      attr {
        key: "T"
        value {
          type: DT_FLOAT
        }
      }
      attr {
        key: "_output_shapes"
        value {
          list {
            shape {
              dim {
                size: 4
              }
            }
          }
        }
      }
      attr {
        key: "out_type"
        value {
          type: DT_INT32
        }
      }
    }
    node {
      name: "gradients/Conv2D_1_grad/Conv2DBackpropInput"
      op: "Conv2DBackpropInput"
      input: "gradients/Conv2D_1_grad/Shape"
      input: "add_1"
      input: "gradients/MaxPool_1_grad/MaxPoolGrad"
      attr {
        key: "T"
        value {
          type: DT_FLOAT
        }
      }
      attr {
        key: "_output_shapes"
        value {
          list {
            shape {
              dim {
                size: -1
              }
              dim {
                size: -1
              }
              dim {
                size: -1
              }
              dim {
                size: -1
              }
            }
          }
        }
      }
      attr {
        key: "data_format"
        value {
          s: "NHWC"
        }
      }
      attr {
        key: "padding"
        value {
          s: "SAME"
        }
      }
      attr {
        key: "strides"
        value {
          list {
            i: 1
            i: 1
            i: 1
            i: 1
          }
        }
      }
      attr {
        key: "use_cudnn_on_gpu"
        value {
          b: true
        }
      }
    }
    node {
      name: "gradients/Conv2D_1_grad/Shape_1"
      op: "Const"
      attr {
        key: "_output_shapes"
        value {
          list {
            shape {
              dim {
                size: 4
              }
            }
          }
        }
      }
      attr {
        key: "dtype"
        value {
          type: DT_INT32
        }
      }
      attr {
        key: "value"
        value {
          tensor {
            dtype: DT_INT32
            tensor_shape {
              dim {
                size: 4
              }
            }
            tensor_content: "\005\000\000\000\005\000\000\000 \000\000\000@\000\000\000"
          }
        }
      }
    }
    node {
      name: "gradients/Conv2D_1_grad/Conv2DBackpropFilter"
      op: "Conv2DBackpropFilter"
      input: "MaxPool"
      input: "gradients/Conv2D_1_grad/Shape_1"
      input: "gradients/MaxPool_1_grad/MaxPoolGrad"
      attr {
        key: "T"
        value {
          type: DT_FLOAT
        }
      }
      attr {
        key: "_output_shapes"
        value {
          list {
            shape {
              dim {
                size: 5
              }
              dim {
                size: 5
              }
              dim {
                size: 32
              }
              dim {
                size: 64
              }
            }
          }
        }
      }
      attr {
        key: "data_format"
        value {
          s: "NHWC"
        }
      }
      attr {
        key: "padding"
        value {
          s: "SAME"
        }
      }
      attr {
        key: "strides"
        value {
          list {
            i: 1
            i: 1
            i: 1
            i: 1
          }
        }
      }
      attr {
        key: "use_cudnn_on_gpu"
        value {
          b: true
        }
      }
    }
    node {
      name: "gradients/Conv2D_1_grad/tuple/group_deps"
      op: "NoOp"
      input: "^gradients/Conv2D_1_grad/Conv2DBackpropInput"
      input: "^gradients/Conv2D_1_grad/Conv2DBackpropFilter"
    }
    node {
      name: "gradients/Conv2D_1_grad/tuple/control_dependency"
      op: "Identity"
      input: "gradients/Conv2D_1_grad/Conv2DBackpropInput"
      input: "^gradients/Conv2D_1_grad/tuple/group_deps"
      attr {
        key: "T"
        value {
          type: DT_FLOAT
        }
      }
      attr {
        key: "_class"
        value {
          list {
            s: "loc:@gradients/Conv2D_1_grad/Conv2DBackpropInput"
          }
        }
      }
      attr {
        key: "_output_shapes"
        value {
          list {
            shape {
              dim {
                size: -1
              }
              dim {
                size: 38
              }
              dim {
                size: 68
              }
              dim {
                size: 32
              }
            }
          }
        }
      }
    }
    node {
      name: "gradients/Conv2D_1_grad/tuple/control_dependency_1"
      op: "Identity"
      input: "gradients/Conv2D_1_grad/Conv2DBackpropFilter"
      input: "^gradients/Conv2D_1_grad/tuple/group_deps"
      attr {
        key: "T"
        value {
          type: DT_FLOAT
        }
      }
      attr {
        key: "_class"
        value {
          list {
            s: "loc:@gradients/Conv2D_1_grad/Conv2DBackpropFilter"
          }
        }
      }
      attr {
        key: "_output_shapes"
        value {
          list {
            shape {
              dim {
                size: 5
              }
              dim {
                size: 5
              }
              dim {
                size: 32
              }
              dim {
                size: 64
              }
            }
          }
        }
      }
    }
    node {
      name: "gradients/MaxPool_grad/MaxPoolGrad"
      op: "MaxPoolGrad"
      input: "Conv2D"
      input: "MaxPool"
      input: "gradients/Conv2D_1_grad/tuple/control_dependency"
      attr {
        key: "T"
        value {
          type: DT_FLOAT
        }
      }
      attr {
        key: "_output_shapes"
        value {
          list {
            shape {
              dim {
                size: -1
              }
              dim {
                size: 76
              }
              dim {
                size: 136
              }
              dim {
                size: 32
              }
            }
          }
        }
      }
      attr {
        key: "data_format"
        value {
          s: "NHWC"
        }
      }
      attr {
        key: "ksize"
        value {
          list {
            i: 1
            i: 2
            i: 2
            i: 1
          }
        }
      }
      attr {
        key: "padding"
        value {
          s: "SAME"
        }
      }
      attr {
        key: "strides"
        value {
          list {
            i: 1
            i: 2
            i: 2
            i: 1
          }
        }
      }
    }
    node {
      name: "gradients/add_1_grad/Shape"
      op: "Const"
      attr {
        key: "_output_shapes"
        value {
          list {
            shape {
              dim {
                size: 4
              }
            }
          }
        }
      }
      attr {
        key: "dtype"
        value {
          type: DT_INT32
        }
      }
      attr {
        key: "value"
        value {
          tensor {
            dtype: DT_INT32
            tensor_shape {
              dim {
                size: 4
              }
            }
            tensor_content: "\005\000\000\000\005\000\000\000 \000\000\000@\000\000\000"
          }
        }
      }
    }
    node {
      name: "gradients/add_1_grad/Shape_1"
      op: "Const"
      attr {
        key: "_output_shapes"
        value {
          list {
            shape {
              dim {
                size: 1
              }
            }
          }
        }
      }
      attr {
        key: "dtype"
        value {
          type: DT_INT32
        }
      }
      attr {
        key: "value"
        value {
          tensor {
            dtype: DT_INT32
            tensor_shape {
              dim {
                size: 1
              }
            }
            int_val: 64
          }
        }
      }
    }
    node {
      name: "gradients/add_1_grad/BroadcastGradientArgs"
      op: "BroadcastGradientArgs"
      input: "gradients/add_1_grad/Shape"
      input: "gradients/add_1_grad/Shape_1"
      attr {
        key: "T"
        value {
          type: DT_INT32
        }
      }
      attr {
        key: "_output_shapes"
        value {
          list {
            shape {
              dim {
                size: -1
              }
            }
            shape {
              dim {
                size: -1
              }
            }
          }
        }
      }
    }
    node {
      name: "gradients/add_1_grad/Sum"
      op: "Sum"
      input: "gradients/Conv2D_1_grad/tuple/control_dependency_1"
      input: "gradients/add_1_grad/BroadcastGradientArgs"
      attr {
        key: "T"
        value {
          type: DT_FLOAT
        }
      }
      attr {
        key: "Tidx"
        value {
          type: DT_INT32
        }
      }
      attr {
        key: "_output_shapes"
        value {
          list {
            shape {
              unknown_rank: true
            }
          }
        }
      }
      attr {
        key: "keep_dims"
        value {
          b: false
        }
      }
    }
    node {
      name: "gradients/add_1_grad/Reshape"
      op: "Reshape"
      input: "gradients/add_1_grad/Sum"
      input: "gradients/add_1_grad/Shape"
      attr {
        key: "T"
        value {
          type: DT_FLOAT
        }
      }
      attr {
        key: "Tshape"
        value {
          type: DT_INT32
        }
      }
      attr {
        key: "_output_shapes"
        value {
          list {
            shape {
              dim {
                size: 5
              }
              dim {
                size: 5
              }
              dim {
                size: 32
              }
              dim {
                size: 64
              }
            }
          }
        }
      }
    }
    node {
      name: "gradients/add_1_grad/Sum_1"
      op: "Sum"
      input: "gradients/Conv2D_1_grad/tuple/control_dependency_1"
      input: "gradients/add_1_grad/BroadcastGradientArgs:1"
      attr {
        key: "T"
        value {
          type: DT_FLOAT
        }
      }
      attr {
        key: "Tidx"
        value {
          type: DT_INT32
        }
      }
      attr {
        key: "_output_shapes"
        value {
          list {
            shape {
              unknown_rank: true
            }
          }
        }
      }
      attr {
        key: "keep_dims"
        value {
          b: false
        }
      }
    }
    node {
      name: "gradients/add_1_grad/Reshape_1"
      op: "Reshape"
      input: "gradients/add_1_grad/Sum_1"
      input: "gradients/add_1_grad/Shape_1"
      attr {
        key: "T"
        value {
          type: DT_FLOAT
        }
      }
      attr {
        key: "Tshape"
        value {
          type: DT_INT32
        }
      }
      attr {
        key: "_output_shapes"
        value {
          list {
            shape {
              dim {
                size: 64
              }
            }
          }
        }
      }
    }
    node {
      name: "gradients/add_1_grad/tuple/group_deps"
      op: "NoOp"
      input: "^gradients/add_1_grad/Reshape"
      input: "^gradients/add_1_grad/Reshape_1"
    }
    node {
      name: "gradients/add_1_grad/tuple/control_dependency"
      op: "Identity"
      input: "gradients/add_1_grad/Reshape"
      input: "^gradients/add_1_grad/tuple/group_deps"
      attr {
        key: "T"
        value {
          type: DT_FLOAT
        }
      }
      attr {
        key: "_class"
        value {
          list {
            s: "loc:@gradients/add_1_grad/Reshape"
          }
        }
      }
      attr {
        key: "_output_shapes"
        value {
          list {
            shape {
              dim {
                size: 5
              }
              dim {
                size: 5
              }
              dim {
                size: 32
              }
              dim {
                size: 64
              }
            }
          }
        }
      }
    }
    node {
      name: "gradients/add_1_grad/tuple/control_dependency_1"
      op: "Identity"
      input: "gradients/add_1_grad/Reshape_1"
      input: "^gradients/add_1_grad/tuple/group_deps"
      attr {
        key: "T"
        value {
          type: DT_FLOAT
        }
      }
      attr {
        key: "_class"
        value {
          list {
            s: "loc:@gradients/add_1_grad/Reshape_1"
          }
        }
      }
      attr {
        key: "_output_shapes"
        value {
          list {
            shape {
              dim {
                size: 64
              }
            }
          }
        }
      }
    }
    node {
      name: "gradients/Conv2D_grad/Shape"
      op: "Shape"
      input: "Reshape"
      attr {
        key: "T"
        value {
          type: DT_FLOAT
        }
      }
      attr {
        key: "_output_shapes"
        value {
          list {
            shape {
              dim {
                size: 4
              }
            }
          }
        }
      }
      attr {
        key: "out_type"
        value {
          type: DT_INT32
        }
      }
    }
    node {
      name: "gradients/Conv2D_grad/Conv2DBackpropInput"
      op: "Conv2DBackpropInput"
      input: "gradients/Conv2D_grad/Shape"
      input: "add"
      input: "gradients/MaxPool_grad/MaxPoolGrad"
      attr {
        key: "T"
        value {
          type: DT_FLOAT
        }
      }
      attr {
        key: "_output_shapes"
        value {
          list {
            shape {
              dim {
                size: -1
              }
              dim {
                size: -1
              }
              dim {
                size: -1
              }
              dim {
                size: -1
              }
            }
          }
        }
      }
      attr {
        key: "data_format"
        value {
          s: "NHWC"
        }
      }
      attr {
        key: "padding"
        value {
          s: "SAME"
        }
      }
      attr {
        key: "strides"
        value {
          list {
            i: 1
            i: 1
            i: 1
            i: 1
          }
        }
      }
      attr {
        key: "use_cudnn_on_gpu"
        value {
          b: true
        }
      }
    }
    node {
      name: "gradients/Conv2D_grad/Shape_1"
      op: "Const"
      attr {
        key: "_output_shapes"
        value {
          list {
            shape {
              dim {
                size: 4
              }
            }
          }
        }
      }
      attr {
        key: "dtype"
        value {
          type: DT_INT32
        }
      }
      attr {
        key: "value"
        value {
          tensor {
            dtype: DT_INT32
            tensor_shape {
              dim {
                size: 4
              }
            }
            tensor_content: "\005\000\000\000\005\000\000\000\001\000\000\000 \000\000\000"
          }
        }
      }
    }
    node {
      name: "gradients/Conv2D_grad/Conv2DBackpropFilter"
      op: "Conv2DBackpropFilter"
      input: "Reshape"
      input: "gradients/Conv2D_grad/Shape_1"
      input: "gradients/MaxPool_grad/MaxPoolGrad"
      attr {
        key: "T"
        value {
          type: DT_FLOAT
        }
      }
      attr {
        key: "_output_shapes"
        value {
          list {
            shape {
              dim {
                size: 5
              }
              dim {
                size: 5
              }
              dim {
                size: 1
              }
              dim {
                size: 32
              }
            }
          }
        }
      }
      attr {
        key: "data_format"
        value {
          s: "NHWC"
        }
      }
      attr {
        key: "padding"
        value {
          s: "SAME"
        }
      }
      attr {
        key: "strides"
        value {
          list {
            i: 1
            i: 1
            i: 1
            i: 1
          }
        }
      }
      attr {
        key: "use_cudnn_on_gpu"
        value {
          b: true
        }
      }
    }
    node {
      name: "gradients/Conv2D_grad/tuple/group_deps"
      op: "NoOp"
      input: "^gradients/Conv2D_grad/Conv2DBackpropInput"
      input: "^gradients/Conv2D_grad/Conv2DBackpropFilter"
    }
    node {
      name: "gradients/Conv2D_grad/tuple/control_dependency"
      op: "Identity"
      input: "gradients/Conv2D_grad/Conv2DBackpropInput"
      input: "^gradients/Conv2D_grad/tuple/group_deps"
      attr {
        key: "T"
        value {
          type: DT_FLOAT
        }
      }
      attr {
        key: "_class"
        value {
          list {
            s: "loc:@gradients/Conv2D_grad/Conv2DBackpropInput"
          }
        }
      }
      attr {
        key: "_output_shapes"
        value {
          list {
            shape {
              dim {
                size: -1
              }
              dim {
                size: 76
              }
              dim {
                size: 136
              }
              dim {
                size: 1
              }
            }
          }
        }
      }
    }
    node {
      name: "gradients/Conv2D_grad/tuple/control_dependency_1"
      op: "Identity"
      input: "gradients/Conv2D_grad/Conv2DBackpropFilter"
      input: "^gradients/Conv2D_grad/tuple/group_deps"
      attr {
        key: "T"
        value {
          type: DT_FLOAT
        }
      }
      attr {
        key: "_class"
        value {
          list {
            s: "loc:@gradients/Conv2D_grad/Conv2DBackpropFilter"
          }
        }
      }
      attr {
        key: "_output_shapes"
        value {
          list {
            shape {
              dim {
                size: 5
              }
              dim {
                size: 5
              }
              dim {
                size: 1
              }
              dim {
                size: 32
              }
            }
          }
        }
      }
    }
    node {
      name: "gradients/add_grad/Shape"
      op: "Const"
      attr {
        key: "_output_shapes"
        value {
          list {
            shape {
              dim {
                size: 4
              }
            }
          }
        }
      }
      attr {
        key: "dtype"
        value {
          type: DT_INT32
        }
      }
      attr {
        key: "value"
        value {
          tensor {
            dtype: DT_INT32
            tensor_shape {
              dim {
                size: 4
              }
            }
            tensor_content: "\005\000\000\000\005\000\000\000\001\000\000\000 \000\000\000"
          }
        }
      }
    }
    node {
      name: "gradients/add_grad/Shape_1"
      op: "Const"
      attr {
        key: "_output_shapes"
        value {
          list {
            shape {
              dim {
                size: 1
              }
            }
          }
        }
      }
      attr {
        key: "dtype"
        value {
          type: DT_INT32
        }
      }
      attr {
        key: "value"
        value {
          tensor {
            dtype: DT_INT32
            tensor_shape {
              dim {
                size: 1
              }
            }
            int_val: 32
          }
        }
      }
    }
    node {
      name: "gradients/add_grad/BroadcastGradientArgs"
      op: "BroadcastGradientArgs"
      input: "gradients/add_grad/Shape"
      input: "gradients/add_grad/Shape_1"
      attr {
        key: "T"
        value {
          type: DT_INT32
        }
      }
      attr {
        key: "_output_shapes"
        value {
          list {
            shape {
              dim {
                size: -1
              }
            }
            shape {
              dim {
                size: -1
              }
            }
          }
        }
      }
    }
    node {
      name: "gradients/add_grad/Sum"
      op: "Sum"
      input: "gradients/Conv2D_grad/tuple/control_dependency_1"
      input: "gradients/add_grad/BroadcastGradientArgs"
      attr {
        key: "T"
        value {
          type: DT_FLOAT
        }
      }
      attr {
        key: "Tidx"
        value {
          type: DT_INT32
        }
      }
      attr {
        key: "_output_shapes"
        value {
          list {
            shape {
              unknown_rank: true
            }
          }
        }
      }
      attr {
        key: "keep_dims"
        value {
          b: false
        }
      }
    }
    node {
      name: "gradients/add_grad/Reshape"
      op: "Reshape"
      input: "gradients/add_grad/Sum"
      input: "gradients/add_grad/Shape"
      attr {
        key: "T"
        value {
          type: DT_FLOAT
        }
      }
      attr {
        key: "Tshape"
        value {
          type: DT_INT32
        }
      }
      attr {
        key: "_output_shapes"
        value {
          list {
            shape {
              dim {
                size: 5
              }
              dim {
                size: 5
              }
              dim {
                size: 1
              }
              dim {
                size: 32
              }
            }
          }
        }
      }
    }
    node {
      name: "gradients/add_grad/Sum_1"
      op: "Sum"
      input: "gradients/Conv2D_grad/tuple/control_dependency_1"
      input: "gradients/add_grad/BroadcastGradientArgs:1"
      attr {
        key: "T"
        value {
          type: DT_FLOAT
        }
      }
      attr {
        key: "Tidx"
        value {
          type: DT_INT32
        }
      }
      attr {
        key: "_output_shapes"
        value {
          list {
            shape {
              unknown_rank: true
            }
          }
        }
      }
      attr {
        key: "keep_dims"
        value {
          b: false
        }
      }
    }
    node {
      name: "gradients/add_grad/Reshape_1"
      op: "Reshape"
      input: "gradients/add_grad/Sum_1"
      input: "gradients/add_grad/Shape_1"
      attr {
        key: "T"
        value {
          type: DT_FLOAT
        }
      }
      attr {
        key: "Tshape"
        value {
          type: DT_INT32
        }
      }
      attr {
        key: "_output_shapes"
        value {
          list {
            shape {
              dim {
                size: 32
              }
            }
          }
        }
      }
    }
    node {
      name: "gradients/add_grad/tuple/group_deps"
      op: "NoOp"
      input: "^gradients/add_grad/Reshape"
      input: "^gradients/add_grad/Reshape_1"
    }
    node {
      name: "gradients/add_grad/tuple/control_dependency"
      op: "Identity"
      input: "gradients/add_grad/Reshape"
      input: "^gradients/add_grad/tuple/group_deps"
      attr {
        key: "T"
        value {
          type: DT_FLOAT
        }
      }
      attr {
        key: "_class"
        value {
          list {
            s: "loc:@gradients/add_grad/Reshape"
          }
        }
      }
      attr {
        key: "_output_shapes"
        value {
          list {
            shape {
              dim {
                size: 5
              }
              dim {
                size: 5
              }
              dim {
                size: 1
              }
              dim {
                size: 32
              }
            }
          }
        }
      }
    }
    node {
      name: "gradients/add_grad/tuple/control_dependency_1"
      op: "Identity"
      input: "gradients/add_grad/Reshape_1"
      input: "^gradients/add_grad/tuple/group_deps"
      attr {
        key: "T"
        value {
          type: DT_FLOAT
        }
      }
      attr {
        key: "_class"
        value {
          list {
            s: "loc:@gradients/add_grad/Reshape_1"
          }
        }
      }
      attr {
        key: "_output_shapes"
        value {
          list {
            shape {
              dim {
                size: 32
              }
            }
          }
        }
      }
    }
    node {
      name: "GradientDescent/learning_rate"
      op: "Const"
      attr {
        key: "_output_shapes"
        value {
          list {
            shape {
            }
          }
        }
      }
      attr {
        key: "dtype"
        value {
          type: DT_FLOAT
        }
      }
      attr {
        key: "value"
        value {
          tensor {
            dtype: DT_FLOAT
            tensor_shape {
            }
            float_val: 0.009999999776482582
          }
        }
      }
    }
    node {
      name: "GradientDescent/update_Variable/ApplyGradientDescent"
      op: "ApplyGradientDescent"
      input: "Variable"
      input: "GradientDescent/learning_rate"
      input: "gradients/add_grad/tuple/control_dependency"
      attr {
        key: "T"
        value {
          type: DT_FLOAT
        }
      }
      attr {
        key: "_class"
        value {
          list {
            s: "loc:@Variable"
          }
        }
      }
      attr {
        key: "_output_shapes"
        value {
          list {
            shape {
              dim {
                size: 5
              }
              dim {
                size: 5
              }
              dim {
                size: 1
              }
              dim {
                size: 32
              }
            }
          }
        }
      }
      attr {
        key: "use_locking"
        value {
          b: false
        }
      }
    }
    node {
      name: "GradientDescent/update_Variable_1/ApplyGradientDescent"
      op: "ApplyGradientDescent"
      input: "Variable_1"
      input: "GradientDescent/learning_rate"
      input: "gradients/add_1_grad/tuple/control_dependency"
      attr {
        key: "T"
        value {
          type: DT_FLOAT
        }
      }
      attr {
        key: "_class"
        value {
          list {
            s: "loc:@Variable_1"
          }
        }
      }
      attr {
        key: "_output_shapes"
        value {
          list {
            shape {
              dim {
                size: 5
              }
              dim {
                size: 5
              }
              dim {
                size: 32
              }
              dim {
                size: 64
              }
            }
          }
        }
      }
      attr {
        key: "use_locking"
        value {
          b: false
        }
      }
    }
    node {
      name: "GradientDescent/update_Variable_2/ApplyGradientDescent"
      op: "ApplyGradientDescent"
      input: "Variable_2"
      input: "GradientDescent/learning_rate"
      input: "gradients/MatMul_grad/tuple/control_dependency_1"
      attr {
        key: "T"
        value {
          type: DT_FLOAT
        }
      }
      attr {
        key: "_class"
        value {
          list {
            s: "loc:@Variable_2"
          }
        }
      }
      attr {
        key: "_output_shapes"
        value {
          list {
            shape {
              dim {
                size: 41344
              }
              dim {
                size: 1024
              }
            }
          }
        }
      }
      attr {
        key: "use_locking"
        value {
          b: false
        }
      }
    }
    node {
      name: "GradientDescent/update_Variable_3/ApplyGradientDescent"
      op: "ApplyGradientDescent"
      input: "Variable_3"
      input: "GradientDescent/learning_rate"
      input: "gradients/MatMul_1_grad/tuple/control_dependency_1"
      attr {
        key: "T"
        value {
          type: DT_FLOAT
        }
      }
      attr {
        key: "_class"
        value {
          list {
            s: "loc:@Variable_3"
          }
        }
      }
      attr {
        key: "_output_shapes"
        value {
          list {
            shape {
              dim {
                size: 1024
              }
              dim {
                size: 5
              }
            }
          }
        }
      }
      attr {
        key: "use_locking"
        value {
          b: false
        }
      }
    }
    node {
      name: "GradientDescent/update_Variable_4/ApplyGradientDescent"
      op: "ApplyGradientDescent"
      input: "Variable_4"
      input: "GradientDescent/learning_rate"
      input: "gradients/add_grad/tuple/control_dependency_1"
      attr {
        key: "T"
        value {
          type: DT_FLOAT
        }
      }
      attr {
        key: "_class"
        value {
          list {
            s: "loc:@Variable_4"
          }
        }
      }
      attr {
        key: "_output_shapes"
        value {
          list {
            shape {
              dim {
                size: 32
              }
            }
          }
        }
      }
      attr {
        key: "use_locking"
        value {
          b: false
        }
      }
    }
    node {
      name: "GradientDescent/update_Variable_5/ApplyGradientDescent"
      op: "ApplyGradientDescent"
      input: "Variable_5"
      input: "GradientDescent/learning_rate"
      input: "gradients/add_1_grad/tuple/control_dependency_1"
      attr {
        key: "T"
        value {
          type: DT_FLOAT
        }
      }
      attr {
        key: "_class"
        value {
          list {
            s: "loc:@Variable_5"
          }
        }
      }
      attr {
        key: "_output_shapes"
        value {
          list {
            shape {
              dim {
                size: 64
              }
            }
          }
        }
      }
      attr {
        key: "use_locking"
        value {
          b: false
        }
      }
    }
    node {
      name: "GradientDescent/update_Variable_6/ApplyGradientDescent"
      op: "ApplyGradientDescent"
      input: "Variable_6"
      input: "GradientDescent/learning_rate"
      input: "gradients/add_2_grad/tuple/control_dependency_1"
      attr {
        key: "T"
        value {
          type: DT_FLOAT
        }
      }
      attr {
        key: "_class"
        value {
          list {
            s: "loc:@Variable_6"
          }
        }
      }
      attr {
        key: "_output_shapes"
        value {
          list {
            shape {
              dim {
                size: 1024
              }
            }
          }
        }
      }
      attr {
        key: "use_locking"
        value {
          b: false
        }
      }
    }
    node {
      name: "GradientDescent/update_Variable_7/ApplyGradientDescent"
      op: "ApplyGradientDescent"
      input: "Variable_7"
      input: "GradientDescent/learning_rate"
      input: "gradients/add_3_grad/tuple/control_dependency_1"
      attr {
        key: "T"
        value {
          type: DT_FLOAT
        }
      }
      attr {
        key: "_class"
        value {
          list {
            s: "loc:@Variable_7"
          }
        }
      }
      attr {
        key: "_output_shapes"
        value {
          list {
            shape {
              dim {
                size: 5
              }
            }
          }
        }
      }
      attr {
        key: "use_locking"
        value {
          b: false
        }
      }
    }
    node {
      name: "GradientDescent"
      op: "NoOp"
      input: "^GradientDescent/update_Variable/ApplyGradientDescent"
      input: "^GradientDescent/update_Variable_1/ApplyGradientDescent"
      input: "^GradientDescent/update_Variable_2/ApplyGradientDescent"
      input: "^GradientDescent/update_Variable_3/ApplyGradientDescent"
      input: "^GradientDescent/update_Variable_4/ApplyGradientDescent"
      input: "^GradientDescent/update_Variable_5/ApplyGradientDescent"
      input: "^GradientDescent/update_Variable_6/ApplyGradientDescent"
      input: "^GradientDescent/update_Variable_7/ApplyGradientDescent"
    }
    node {
      name: "init"
      op: "NoOp"
      input: "^Variable/Assign"
      input: "^Variable_1/Assign"
      input: "^Variable_2/Assign"
      input: "^Variable_3/Assign"
      input: "^Variable_4/Assign"
      input: "^Variable_5/Assign"
      input: "^Variable_6/Assign"
      input: "^Variable_7/Assign"
    }
    node {
      name: "save/Const"
      op: "Const"
      attr {
        key: "_output_shapes"
        value {
          list {
            shape {
            }
          }
        }
      }
      attr {
        key: "dtype"
        value {
          type: DT_STRING
        }
      }
      attr {
        key: "value"
        value {
          tensor {
            dtype: DT_STRING
            tensor_shape {
            }
            string_val: "model"
          }
        }
      }
    }
    node {
      name: "save/StringJoin/inputs_1"
      op: "Const"
      attr {
        key: "_output_shapes"
        value {
          list {
            shape {
            }
          }
        }
      }
      attr {
        key: "dtype"
        value {
          type: DT_STRING
        }
      }
      attr {
        key: "value"
        value {
          tensor {
            dtype: DT_STRING
            tensor_shape {
            }
            string_val: "_temp_518363d4e00745b99ad16225662d9cac/part"
          }
        }
      }
    }
    node {
      name: "save/StringJoin"
      op: "StringJoin"
      input: "save/Const"
      input: "save/StringJoin/inputs_1"
      attr {
        key: "N"
        value {
          i: 2
        }
      }
      attr {
        key: "_output_shapes"
        value {
          list {
            shape {
            }
          }
        }
      }
      attr {
        key: "separator"
        value {
          s: ""
        }
      }
    }
    node {
      name: "save/num_shards"
      op: "Const"
      attr {
        key: "_output_shapes"
        value {
          list {
            shape {
            }
          }
        }
      }
      attr {
        key: "dtype"
        value {
          type: DT_INT32
        }
      }
      attr {
        key: "value"
        value {
          tensor {
            dtype: DT_INT32
            tensor_shape {
            }
            int_val: 1
          }
        }
      }
    }
    node {
      name: "save/ShardedFilename/shard"
      op: "Const"
      attr {
        key: "_output_shapes"
        value {
          list {
            shape {
            }
          }
        }
      }
      attr {
        key: "dtype"
        value {
          type: DT_INT32
        }
      }
      attr {
        key: "value"
        value {
          tensor {
            dtype: DT_INT32
            tensor_shape {
            }
            int_val: 0
          }
        }
      }
    }
    node {
      name: "save/ShardedFilename"
      op: "ShardedFilename"
      input: "save/StringJoin"
      input: "save/ShardedFilename/shard"
      input: "save/num_shards"
      attr {
        key: "_output_shapes"
        value {
          list {
            shape {
            }
          }
        }
      }
    }
    node {
      name: "save/SaveV2/tensor_names"
      op: "Const"
      attr {
        key: "_output_shapes"
        value {
          list {
            shape {
              dim {
                size: 8
              }
            }
          }
        }
      }
      attr {
        key: "dtype"
        value {
          type: DT_STRING
        }
      }
      attr {
        key: "value"
        value {
          tensor {
            dtype: DT_STRING
            tensor_shape {
              dim {
                size: 8
              }
            }
            string_val: "Variable"
            string_val: "Variable_1"
            string_val: "Variable_2"
            string_val: "Variable_3"
            string_val: "Variable_4"
            string_val: "Variable_5"
            string_val: "Variable_6"
            string_val: "Variable_7"
          }
        }
      }
    }
    node {
      name: "save/SaveV2/shape_and_slices"
      op: "Const"
      attr {
        key: "_output_shapes"
        value {
          list {
            shape {
              dim {
                size: 8
              }
            }
          }
        }
      }
      attr {
        key: "dtype"
        value {
          type: DT_STRING
        }
      }
      attr {
        key: "value"
        value {
          tensor {
            dtype: DT_STRING
            tensor_shape {
              dim {
                size: 8
              }
            }
            string_val: ""
            string_val: ""
            string_val: ""
            string_val: ""
            string_val: ""
            string_val: ""
            string_val: ""
            string_val: ""
          }
        }
      }
    }
    node {
      name: "save/SaveV2"
      op: "SaveV2"
      input: "save/ShardedFilename"
      input: "save/SaveV2/tensor_names"
      input: "save/SaveV2/shape_and_slices"
      input: "Variable"
      input: "Variable_1"
      input: "Variable_2"
      input: "Variable_3"
      input: "Variable_4"
      input: "Variable_5"
      input: "Variable_6"
      input: "Variable_7"
      attr {
        key: "dtypes"
        value {
          list {
            type: DT_FLOAT
            type: DT_FLOAT
            type: DT_FLOAT
            type: DT_FLOAT
            type: DT_FLOAT
            type: DT_FLOAT
            type: DT_FLOAT
            type: DT_FLOAT
          }
        }
      }
    }
    node {
      name: "save/control_dependency"
      op: "Identity"
      input: "save/ShardedFilename"
      input: "^save/SaveV2"
      attr {
        key: "T"
        value {
          type: DT_STRING
        }
      }
      attr {
        key: "_class"
        value {
          list {
            s: "loc:@save/ShardedFilename"
          }
        }
      }
      attr {
        key: "_output_shapes"
        value {
          list {
            shape {
            }
          }
        }
      }
    }
    node {
      name: "save/MergeV2Checkpoints/checkpoint_prefixes"
      op: "Pack"
      input: "save/ShardedFilename"
      input: "^save/control_dependency"
      attr {
        key: "N"
        value {
          i: 1
        }
      }
      attr {
        key: "T"
        value {
          type: DT_STRING
        }
      }
      attr {
        key: "_output_shapes"
        value {
          list {
            shape {
              dim {
                size: 1
              }
            }
          }
        }
      }
      attr {
        key: "axis"
        value {
          i: 0
        }
      }
    }
    node {
      name: "save/MergeV2Checkpoints"
      op: "MergeV2Checkpoints"
      input: "save/MergeV2Checkpoints/checkpoint_prefixes"
      input: "save/Const"
      attr {
        key: "delete_old_dirs"
        value {
          b: true
        }
      }
    }
    node {
      name: "save/Identity"
      op: "Identity"
      input: "save/Const"
      input: "^save/control_dependency"
      input: "^save/MergeV2Checkpoints"
      attr {
        key: "T"
        value {
          type: DT_STRING
        }
      }
      attr {
        key: "_output_shapes"
        value {
          list {
            shape {
            }
          }
        }
      }
    }
    node {
      name: "save/RestoreV2/tensor_names"
      op: "Const"
      attr {
        key: "_output_shapes"
        value {
          list {
            shape {
              dim {
                size: 1
              }
            }
          }
        }
      }
      attr {
        key: "dtype"
        value {
          type: DT_STRING
        }
      }
      attr {
        key: "value"
        value {
          tensor {
            dtype: DT_STRING
            tensor_shape {
              dim {
                size: 1
              }
            }
            string_val: "Variable"
          }
        }
      }
    }
    node {
      name: "save/RestoreV2/shape_and_slices"
      op: "Const"
      attr {
        key: "_output_shapes"
        value {
          list {
            shape {
              dim {
                size: 1
              }
            }
          }
        }
      }
      attr {
        key: "dtype"
        value {
          type: DT_STRING
        }
      }
      attr {
        key: "value"
        value {
          tensor {
            dtype: DT_STRING
            tensor_shape {
              dim {
                size: 1
              }
            }
            string_val: ""
          }
        }
      }
    }
    node {
      name: "save/RestoreV2"
      op: "RestoreV2"
      input: "save/Const"
      input: "save/RestoreV2/tensor_names"
      input: "save/RestoreV2/shape_and_slices"
      attr {
        key: "_output_shapes"
        value {
          list {
            shape {
              unknown_rank: true
            }
          }
        }
      }
      attr {
        key: "dtypes"
        value {
          list {
            type: DT_FLOAT
          }
        }
      }
    }
    node {
      name: "save/Assign"
      op: "Assign"
      input: "Variable"
      input: "save/RestoreV2"
      attr {
        key: "T"
        value {
          type: DT_FLOAT
        }
      }
      attr {
        key: "_class"
        value {
          list {
            s: "loc:@Variable"
          }
        }
      }
      attr {
        key: "_output_shapes"
        value {
          list {
            shape {
              dim {
                size: 5
              }
              dim {
                size: 5
              }
              dim {
                size: 1
              }
              dim {
                size: 32
              }
            }
          }
        }
      }
      attr {
        key: "use_locking"
        value {
          b: true
        }
      }
      attr {
        key: "validate_shape"
        value {
          b: true
        }
      }
    }
    node {
      name: "save/RestoreV2_1/tensor_names"
      op: "Const"
      attr {
        key: "_output_shapes"
        value {
          list {
            shape {
              dim {
                size: 1
              }
            }
          }
        }
      }
      attr {
        key: "dtype"
        value {
          type: DT_STRING
        }
      }
      attr {
        key: "value"
        value {
          tensor {
            dtype: DT_STRING
            tensor_shape {
              dim {
                size: 1
              }
            }
            string_val: "Variable_1"
          }
        }
      }
    }
    node {
      name: "save/RestoreV2_1/shape_and_slices"
      op: "Const"
      attr {
        key: "_output_shapes"
        value {
          list {
            shape {
              dim {
                size: 1
              }
            }
          }
        }
      }
      attr {
        key: "dtype"
        value {
          type: DT_STRING
        }
      }
      attr {
        key: "value"
        value {
          tensor {
            dtype: DT_STRING
            tensor_shape {
              dim {
                size: 1
              }
            }
            string_val: ""
          }
        }
      }
    }
    node {
      name: "save/RestoreV2_1"
      op: "RestoreV2"
      input: "save/Const"
      input: "save/RestoreV2_1/tensor_names"
      input: "save/RestoreV2_1/shape_and_slices"
      attr {
        key: "_output_shapes"
        value {
          list {
            shape {
              unknown_rank: true
            }
          }
        }
      }
      attr {
        key: "dtypes"
        value {
          list {
            type: DT_FLOAT
          }
        }
      }
    }
    node {
      name: "save/Assign_1"
      op: "Assign"
      input: "Variable_1"
      input: "save/RestoreV2_1"
      attr {
        key: "T"
        value {
          type: DT_FLOAT
        }
      }
      attr {
        key: "_class"
        value {
          list {
            s: "loc:@Variable_1"
          }
        }
      }
      attr {
        key: "_output_shapes"
        value {
          list {
            shape {
              dim {
                size: 5
              }
              dim {
                size: 5
              }
              dim {
                size: 32
              }
              dim {
                size: 64
              }
            }
          }
        }
      }
      attr {
        key: "use_locking"
        value {
          b: true
        }
      }
      attr {
        key: "validate_shape"
        value {
          b: true
        }
      }
    }
    node {
      name: "save/RestoreV2_2/tensor_names"
      op: "Const"
      attr {
        key: "_output_shapes"
        value {
          list {
            shape {
              dim {
                size: 1
              }
            }
          }
        }
      }
      attr {
        key: "dtype"
        value {
          type: DT_STRING
        }
      }
      attr {
        key: "value"
        value {
          tensor {
            dtype: DT_STRING
            tensor_shape {
              dim {
                size: 1
              }
            }
            string_val: "Variable_2"
          }
        }
      }
    }
    node {
      name: "save/RestoreV2_2/shape_and_slices"
      op: "Const"
      attr {
        key: "_output_shapes"
        value {
          list {
            shape {
              dim {
                size: 1
              }
            }
          }
        }
      }
      attr {
        key: "dtype"
        value {
          type: DT_STRING
        }
      }
      attr {
        key: "value"
        value {
          tensor {
            dtype: DT_STRING
            tensor_shape {
              dim {
                size: 1
              }
            }
            string_val: ""
          }
        }
      }
    }
    node {
      name: "save/RestoreV2_2"
      op: "RestoreV2"
      input: "save/Const"
      input: "save/RestoreV2_2/tensor_names"
      input: "save/RestoreV2_2/shape_and_slices"
      attr {
        key: "_output_shapes"
        value {
          list {
            shape {
              unknown_rank: true
            }
          }
        }
      }
      attr {
        key: "dtypes"
        value {
          list {
            type: DT_FLOAT
          }
        }
      }
    }
    node {
      name: "save/Assign_2"
      op: "Assign"
      input: "Variable_2"
      input: "save/RestoreV2_2"
      attr {
        key: "T"
        value {
          type: DT_FLOAT
        }
      }
      attr {
        key: "_class"
        value {
          list {
            s: "loc:@Variable_2"
          }
        }
      }
      attr {
        key: "_output_shapes"
        value {
          list {
            shape {
              dim {
                size: 41344
              }
              dim {
                size: 1024
              }
            }
          }
        }
      }
      attr {
        key: "use_locking"
        value {
          b: true
        }
      }
      attr {
        key: "validate_shape"
        value {
          b: true
        }
      }
    }
    node {
      name: "save/RestoreV2_3/tensor_names"
      op: "Const"
      attr {
        key: "_output_shapes"
        value {
          list {
            shape {
              dim {
                size: 1
              }
            }
          }
        }
      }
      attr {
        key: "dtype"
        value {
          type: DT_STRING
        }
      }
      attr {
        key: "value"
        value {
          tensor {
            dtype: DT_STRING
            tensor_shape {
              dim {
                size: 1
              }
            }
            string_val: "Variable_3"
          }
        }
      }
    }
    node {
      name: "save/RestoreV2_3/shape_and_slices"
      op: "Const"
      attr {
        key: "_output_shapes"
        value {
          list {
            shape {
              dim {
                size: 1
              }
            }
          }
        }
      }
      attr {
        key: "dtype"
        value {
          type: DT_STRING
        }
      }
      attr {
        key: "value"
        value {
          tensor {
            dtype: DT_STRING
            tensor_shape {
              dim {
                size: 1
              }
            }
            string_val: ""
          }
        }
      }
    }
    node {
      name: "save/RestoreV2_3"
      op: "RestoreV2"
      input: "save/Const"
      input: "save/RestoreV2_3/tensor_names"
      input: "save/RestoreV2_3/shape_and_slices"
      attr {
        key: "_output_shapes"
        value {
          list {
            shape {
              unknown_rank: true
            }
          }
        }
      }
      attr {
        key: "dtypes"
        value {
          list {
            type: DT_FLOAT
          }
        }
      }
    }
    node {
      name: "save/Assign_3"
      op: "Assign"
      input: "Variable_3"
      input: "save/RestoreV2_3"
      attr {
        key: "T"
        value {
          type: DT_FLOAT
        }
      }
      attr {
        key: "_class"
        value {
          list {
            s: "loc:@Variable_3"
          }
        }
      }
      attr {
        key: "_output_shapes"
        value {
          list {
            shape {
              dim {
                size: 1024
              }
              dim {
                size: 5
              }
            }
          }
        }
      }
      attr {
        key: "use_locking"
        value {
          b: true
        }
      }
      attr {
        key: "validate_shape"
        value {
          b: true
        }
      }
    }
    node {
      name: "save/RestoreV2_4/tensor_names"
      op: "Const"
      attr {
        key: "_output_shapes"
        value {
          list {
            shape {
              dim {
                size: 1
              }
            }
          }
        }
      }
      attr {
        key: "dtype"
        value {
          type: DT_STRING
        }
      }
      attr {
        key: "value"
        value {
          tensor {
            dtype: DT_STRING
            tensor_shape {
              dim {
                size: 1
              }
            }
            string_val: "Variable_4"
          }
        }
      }
    }
    node {
      name: "save/RestoreV2_4/shape_and_slices"
      op: "Const"
      attr {
        key: "_output_shapes"
        value {
          list {
            shape {
              dim {
                size: 1
              }
            }
          }
        }
      }
      attr {
        key: "dtype"
        value {
          type: DT_STRING
        }
      }
      attr {
        key: "value"
        value {
          tensor {
            dtype: DT_STRING
            tensor_shape {
              dim {
                size: 1
              }
            }
            string_val: ""
          }
        }
      }
    }
    node {
      name: "save/RestoreV2_4"
      op: "RestoreV2"
      input: "save/Const"
      input: "save/RestoreV2_4/tensor_names"
      input: "save/RestoreV2_4/shape_and_slices"
      attr {
        key: "_output_shapes"
        value {
          list {
            shape {
              unknown_rank: true
            }
          }
        }
      }
      attr {
        key: "dtypes"
        value {
          list {
            type: DT_FLOAT
          }
        }
      }
    }
    node {
      name: "save/Assign_4"
      op: "Assign"
      input: "Variable_4"
      input: "save/RestoreV2_4"
      attr {
        key: "T"
        value {
          type: DT_FLOAT
        }
      }
      attr {
        key: "_class"
        value {
          list {
            s: "loc:@Variable_4"
          }
        }
      }
      attr {
        key: "_output_shapes"
        value {
          list {
            shape {
              dim {
                size: 32
              }
            }
          }
        }
      }
      attr {
        key: "use_locking"
        value {
          b: true
        }
      }
      attr {
        key: "validate_shape"
        value {
          b: true
        }
      }
    }
    node {
      name: "save/RestoreV2_5/tensor_names"
      op: "Const"
      attr {
        key: "_output_shapes"
        value {
          list {
            shape {
              dim {
                size: 1
              }
            }
          }
        }
      }
      attr {
        key: "dtype"
        value {
          type: DT_STRING
        }
      }
      attr {
        key: "value"
        value {
          tensor {
            dtype: DT_STRING
            tensor_shape {
              dim {
                size: 1
              }
            }
            string_val: "Variable_5"
          }
        }
      }
    }
    node {
      name: "save/RestoreV2_5/shape_and_slices"
      op: "Const"
      attr {
        key: "_output_shapes"
        value {
          list {
            shape {
              dim {
                size: 1
              }
            }
          }
        }
      }
      attr {
        key: "dtype"
        value {
          type: DT_STRING
        }
      }
      attr {
        key: "value"
        value {
          tensor {
            dtype: DT_STRING
            tensor_shape {
              dim {
                size: 1
              }
            }
            string_val: ""
          }
        }
      }
    }
    node {
      name: "save/RestoreV2_5"
      op: "RestoreV2"
      input: "save/Const"
      input: "save/RestoreV2_5/tensor_names"
      input: "save/RestoreV2_5/shape_and_slices"
      attr {
        key: "_output_shapes"
        value {
          list {
            shape {
              unknown_rank: true
            }
          }
        }
      }
      attr {
        key: "dtypes"
        value {
          list {
            type: DT_FLOAT
          }
        }
      }
    }
    node {
      name: "save/Assign_5"
      op: "Assign"
      input: "Variable_5"
      input: "save/RestoreV2_5"
      attr {
        key: "T"
        value {
          type: DT_FLOAT
        }
      }
      attr {
        key: "_class"
        value {
          list {
            s: "loc:@Variable_5"
          }
        }
      }
      attr {
        key: "_output_shapes"
        value {
          list {
            shape {
              dim {
                size: 64
              }
            }
          }
        }
      }
      attr {
        key: "use_locking"
        value {
          b: true
        }
      }
      attr {
        key: "validate_shape"
        value {
          b: true
        }
      }
    }
    node {
      name: "save/RestoreV2_6/tensor_names"
      op: "Const"
      attr {
        key: "_output_shapes"
        value {
          list {
            shape {
              dim {
                size: 1
              }
            }
          }
        }
      }
      attr {
        key: "dtype"
        value {
          type: DT_STRING
        }
      }
      attr {
        key: "value"
        value {
          tensor {
            dtype: DT_STRING
            tensor_shape {
              dim {
                size: 1
              }
            }
            string_val: "Variable_6"
          }
        }
      }
    }
    node {
      name: "save/RestoreV2_6/shape_and_slices"
      op: "Const"
      attr {
        key: "_output_shapes"
        value {
          list {
            shape {
              dim {
                size: 1
              }
            }
          }
        }
      }
      attr {
        key: "dtype"
        value {
          type: DT_STRING
        }
      }
      attr {
        key: "value"
        value {
          tensor {
            dtype: DT_STRING
            tensor_shape {
              dim {
                size: 1
              }
            }
            string_val: ""
          }
        }
      }
    }
    node {
      name: "save/RestoreV2_6"
      op: "RestoreV2"
      input: "save/Const"
      input: "save/RestoreV2_6/tensor_names"
      input: "save/RestoreV2_6/shape_and_slices"
      attr {
        key: "_output_shapes"
        value {
          list {
            shape {
              unknown_rank: true
            }
          }
        }
      }
      attr {
        key: "dtypes"
        value {
          list {
            type: DT_FLOAT
          }
        }
      }
    }
    node {
      name: "save/Assign_6"
      op: "Assign"
      input: "Variable_6"
      input: "save/RestoreV2_6"
      attr {
        key: "T"
        value {
          type: DT_FLOAT
        }
      }
      attr {
        key: "_class"
        value {
          list {
            s: "loc:@Variable_6"
          }
        }
      }
      attr {
        key: "_output_shapes"
        value {
          list {
            shape {
              dim {
                size: 1024
              }
            }
          }
        }
      }
      attr {
        key: "use_locking"
        value {
          b: true
        }
      }
      attr {
        key: "validate_shape"
        value {
          b: true
        }
      }
    }
    node {
      name: "save/RestoreV2_7/tensor_names"
      op: "Const"
      attr {
        key: "_output_shapes"
        value {
          list {
            shape {
              dim {
                size: 1
              }
            }
          }
        }
      }
      attr {
        key: "dtype"
        value {
          type: DT_STRING
        }
      }
      attr {
        key: "value"
        value {
          tensor {
            dtype: DT_STRING
            tensor_shape {
              dim {
                size: 1
              }
            }
            string_val: "Variable_7"
          }
        }
      }
    }
    node {
      name: "save/RestoreV2_7/shape_and_slices"
      op: "Const"
      attr {
        key: "_output_shapes"
        value {
          list {
            shape {
              dim {
                size: 1
              }
            }
          }
        }
      }
      attr {
        key: "dtype"
        value {
          type: DT_STRING
        }
      }
      attr {
        key: "value"
        value {
          tensor {
            dtype: DT_STRING
            tensor_shape {
              dim {
                size: 1
              }
            }
            string_val: ""
          }
        }
      }
    }
    node {
      name: "save/RestoreV2_7"
      op: "RestoreV2"
      input: "save/Const"
      input: "save/RestoreV2_7/tensor_names"
      input: "save/RestoreV2_7/shape_and_slices"
      attr {
        key: "_output_shapes"
        value {
          list {
            shape {
              unknown_rank: true
            }
          }
        }
      }
      attr {
        key: "dtypes"
        value {
          list {
            type: DT_FLOAT
          }
        }
      }
    }
    node {
      name: "save/Assign_7"
      op: "Assign"
      input: "Variable_7"
      input: "save/RestoreV2_7"
      attr {
        key: "T"
        value {
          type: DT_FLOAT
        }
      }
      attr {
        key: "_class"
        value {
          list {
            s: "loc:@Variable_7"
          }
        }
      }
      attr {
        key: "_output_shapes"
        value {
          list {
            shape {
              dim {
                size: 5
              }
            }
          }
        }
      }
      attr {
        key: "use_locking"
        value {
          b: true
        }
      }
      attr {
        key: "validate_shape"
        value {
          b: true
        }
      }
    }
    node {
      name: "save/restore_shard"
      op: "NoOp"
      input: "^save/Assign"
      input: "^save/Assign_1"
      input: "^save/Assign_2"
      input: "^save/Assign_3"
      input: "^save/Assign_4"
      input: "^save/Assign_5"
      input: "^save/Assign_6"
      input: "^save/Assign_7"
    }
    node {
      name: "save/restore_all"
      op: "NoOp"
      input: "^save/restore_shard"
    }
    versions {
      producer: 24
    }
  }
  saver_def {
    filename_tensor_name: "save/Const:0"
    save_tensor_name: "save/Identity:0"
    restore_op_name: "save/restore_all"
    max_to_keep: 5
    sharded: true
    keep_checkpoint_every_n_hours: 10000.0
    version: V2
  }
  collection_def {
    key: "train_op"
    value {
      node_list {
        value: "GradientDescent"
      }
    }
  }
  collection_def {
    key: "trainable_variables"
    value {
      bytes_list {
        value: "\n\nVariable:0\022\017Variable/Assign\032\017Variable/read:0"
        value: "\n\014Variable_1:0\022\021Variable_1/Assign\032\021Variable_1/read:0"
        value: "\n\014Variable_2:0\022\021Variable_2/Assign\032\021Variable_2/read:0"
        value: "\n\014Variable_3:0\022\021Variable_3/Assign\032\021Variable_3/read:0"
        value: "\n\014Variable_4:0\022\021Variable_4/Assign\032\021Variable_4/read:0"
        value: "\n\014Variable_5:0\022\021Variable_5/Assign\032\021Variable_5/read:0"
        value: "\n\014Variable_6:0\022\021Variable_6/Assign\032\021Variable_6/read:0"
        value: "\n\014Variable_7:0\022\021Variable_7/Assign\032\021Variable_7/read:0"
      }
    }
  }
  collection_def {
    key: "variables"
    value {
      bytes_list {
        value: "\n\nVariable:0\022\017Variable/Assign\032\017Variable/read:0"
        value: "\n\014Variable_1:0\022\021Variable_1/Assign\032\021Variable_1/read:0"
        value: "\n\014Variable_2:0\022\021Variable_2/Assign\032\021Variable_2/read:0"
        value: "\n\014Variable_3:0\022\021Variable_3/Assign\032\021Variable_3/read:0"
        value: "\n\014Variable_4:0\022\021Variable_4/Assign\032\021Variable_4/read:0"
        value: "\n\014Variable_5:0\022\021Variable_5/Assign\032\021Variable_5/read:0"
        value: "\n\014Variable_6:0\022\021Variable_6/Assign\032\021Variable_6/read:0"
        value: "\n\014Variable_7:0\022\021Variable_7/Assign\032\021Variable_7/read:0"
      }
    }
  }
}
